weights/ae_model.pth (torch, 14594 bytes, 12 tensors)

encoder.0.weight f4 [20, 9]
00000000: aff9 563d 219c 19bd 176f d93c bc19 cc3e
00000010: 2ee7 91bd ef8d e3bd c0b0 d6be c672 813e
00000020: 3ffe 483e 0df6 4dbe 01dd c13d ff02 47be
00000030: 1abc 683e 3bc2 bb3e 19aa 4d3c 09be 13bd
00000040: f48d e3be 3a63 b4be f248 85be 3bae 703e
00000050: c72b 0dbd 860e 213f 4f97 a03d a25f 4abe
00000060: b1f1 fbbc 9469 07be 7f3d e8bd 0ac8 0b3e
00000070: 2f87 1f3e e217 833e 6c04 ca3c 3ae5 37be
00000080: 90fb 5abe a78e 3dbc a7f4 e03d 57a2 473e
00000090: 744f a03e a6ab 7a3e 2f3e a2bd 598f 17be
000000a0: 89f8 9b3c 25d3 6f3e 925c 8dbe 1d5f 913e
000000b0: 5a90 e5be f76e c6bd 8b5a cf3c 8df7 99bb
000000c0: c1fa abbe 314a b23b de4b f43d 8e5d da3e
000000d0: 89fe 6bbe 3401 43be e981 93be a039 94be
000000e0: ccd6 d4be ef90 77bd 6a68 a8bd 0f37 b1bd
000000f0: 8623 1bbe 039d b03e 61c5 463e 2bcc 72bd
00000100: 44b3 d9bd d356 c83d 2e0e 2ebd 43c8 47be
00000110: 4cc0 1a3d 4048 c03e 2d0a bcbb e641 4bbe
00000120: 87cc 833d 9dd9 1d3c b61b 023d 4a13 073e
00000130: 8496 2f3e 47cc 2b3e bf88 983c 91ed 2a3e
00000140: 76b5 25bc 72f1 9dbd f347 4abe 2920 88be
00000150: 1738 81bd beca 733e f5fa 833e 4b12 93bc
00000160: bfcd 51be 8b1f 13be 263e 8e3e 5574 8b3e
00000170: ea6d c63e b8d6 6f3d 09f1 903d fc4c be3d
00000180: c40d 163e 2746 adbe e78f 2cbe b573 e5bd
00000190: 2351 e9be 7cfd b03e 181d 2dbe 782f a43e
000001a0: e4dd 1e3f f52c bdbe 1efd 29be 2698 2bbe
000001b0: c6b1 f13d de16 b7bd 3ef1 4fbe 76e4 c3bc
000001c0: f226 52be 8447 9abe d054 39be dad6 bbbe
000001d0: 617a 81be 1c6f 683d 3b05 8a3c 5307 d8be
000001e0: 2a05 e13e b27c 803d 757f 01bc 7c33 c53d
000001f0: 071a 253e f9b4 f53d 3a55 d8bd 0545 6d3c
00000200: e2cf ea3e fd9e f0be 9c63 dcbd 04ba 503d
00000210: c101 ebbd d360 5dbe 82bc afbd ec99 033f
00000220: 218d 2c3e 5958 d3be 7b79 823d c9fd 19be
00000230: 02f6 7fbe 94b3 443e 3b0b 1fbe a590 973e
00000240: b07e 8c3e cc80 8b3d 685e fcbd 3d92 903e
00000250: 0517 9fbc 9a89 c9bd 1ed8 bebd 26de 1cbe
00000260: 7b7b dabd 3438 053e 0701 073e 1dd4 af3d
00000270: 4478 00bd d4c3 0ebe 7bac cabd 37f2 093d
00000280: 96d7 ad3d 4ad1 5f3c 91d1 bfbd 89ce f83d
00000290: 518a 373e 4851 c1bc 80f6 863e a9af 703e
000002a0: d59c 633e a1bd 973e b3e9 973e 9e34 bd3d
000002b0: 3ebd 21be 7797 7abd f653 1d3d 118e 49be
000002c0: e29b 0cbe 22b2 16be 6406 37be 24b2 d7bd
0.05248421 -0.03750241 0.02654223 0.39863384 -0.07124172 -0.11111056 -0.41931725 0.25282878
0.19628237 -0.20113392 0.09465981 -0.19434737 0.22728005 0.36671624 0.0125527615 -0.036069904
-0.4444424 -0.35231954 -0.26032215 0.23503964 -0.034465577 0.62912786 0.0784136 -0.19763044
-0.030754896 -0.13223869 -0.113398544 0.13650528 0.15578912 0.2560416 0.024660312 -0.17958537
-0.21385026 -0.0115696555 0.10984164 0.19495521 0.31310618 0.24479541 -0.07922017 -0.14800777
0.01903941 0.23420389 -0.27609688 0.28392878 -0.44836694 -0.096891336 0.025311729 -0.0046987
-0.33589748 0.005440973 0.11928533 0.42649502 -0.23046316 -0.19043428 -0.2881005 -0.28950214
-0.41570127 -0.060440954 -0.082230404 -0.0865308 -0.1515027 0.3449479 0.19411232 -0.05927674
-0.10629895 0.097821854 -0.04249399 -0.19509988 0.037781045 0.37555122 -0.0057385177 -0.19849357
0.06435495 0.009634403 0.03176471 0.13190952 0.17147261 0.16777144 0.018619893 0.16692187
-0.010114064 -0.07712068 -0.19754009 -0.26587036 -0.063095264 0.23807809 0.25777403 -0.017953059
-0.20488642 -0.14367501 0.2778179 0.27237192 0.38755733 0.05855438 0.07077224 0.09292027
0.14653689 -0.33842584 -0.1685177 -0.1120371 -0.45569715 0.34568393 -0.1690563 0.32067466
0.6205733 -0.36948362 -0.16600463 -0.16757259 0.11801486 -0.089399084 -0.2030687 -0.02391265
-0.20522669 -0.30132687 -0.1809876 -0.36687356 -0.2528868 0.056746587 0.016848197 -0.42193088
0.43949252 0.06273784 -0.007903923 0.096289605 0.1612321 0.119974084 -0.10563131 0.014481788
0.45861727 -0.46996298 -0.107611865 0.05095865 -0.11474944 -0.21618967 -0.08580877 0.5140674
0.16850711 -0.4127834 0.06370827 -0.15038218 -0.24996188 0.19209129 -0.15531628 0.29602543
0.27440405 0.068116754 -0.12322694 0.2823657 -0.019420156 -0.098406985 -0.09318565 -0.15319118
-0.10668083 0.13009721 0.13183986 0.08585379 -0.031364694 -0.1394189 -0.09896179 0.03367826
0.084883854 0.013660738 -0.093661435 0.121487685 0.17923857 -0.023598328 0.2635994 0.23504509
0.22227795 0.29636863 0.29670486 0.092385516 -0.15794846 -0.061179604 0.03841015 -0.196831
-0.1373134 -0.1471639 -0.17873532 -0.105320245

encoder.0.bias f4 [20]
00000000: c5c1 bdbe 5199 e83e de8d 2c3f 771e 32be
00000010: 5bfa e13e 8911 b73e f202 67be fbca df3e
00000020: feec 02be 496a 523e f7ca 5a3e 9d2a b43e
00000030: 8db6 623e 7d98 46bd 369c 4d3d 6330 13be
00000040: 06da 8d3e 7f5e 8cbd 02a2 5fbe c488 173e
-0.37061897 0.4542947 0.6740397 -0.17394434 0.4413632 0.35755566 -0.22559717 0.4370955
-0.12785718 0.20548357 0.21366487 0.3518876 0.2213995 -0.048485268 0.050197802 -0.14373927
0.277054 -0.06853961 -0.21839145 0.14798266

encoder.2.weight f4 [40, 20]
00000000: 039c f6bd 17de 033f 9619 483d 9e2b 753d
00000010: 6ce8 3e3e 2ac1 63be 2a20 b0be 2f9b b63d
00000020: 0021 093e 486b 883e 85f2 463e 1e16 be3c
00000030: a4a4 45bd 6003 a43d 72cf b0be 1b9c fcbd
00000040: 79c1 073f 3127 a7bd 8746 843e 3be0 7a3e
00000050: 7d0f 573e a431 303e 559e 64bc be77 acbc
00000060: c414 173e 8b7b 243d 6ec8 283d dbdc 8fbc
00000070: f4ad 853e e931 fabd 1098 b33e f861 06be
00000080: f81f 05bd 1eeb 323e 6146 75bd b60d 143e
00000090: 30db 723e c423 9abd e68d ab3e 6135 7d3c
000000a0: 1f33 b7be c7c7 69be a10b c9be addb 353e
000000b0: f71d 87be 8b9c 013f b9f5 0c3e e448 543e
000000c0: 3fcc 7c3d cd0c fa3e 7ab2 b1bd 754a 573e
000000d0: a681 5dbd 282f e23d 8897 2a3d ad78 b0be
000000e0: ef15 8e3d 8890 38be 7a0f 83be e737 983d
000000f0: 50fe 623e 63cd de3d edeb a0be 435f 8f3d
00000100: dcb9 af3e d908 463d 84ee d1bd 8e54 f73b
00000110: 7b53 ed3d c68b 14bd e411 233d 0d62 babd
00000120: 7f5f 013e 7a79 663e b51b 813b 21aa 003f
00000130: dc0d 1f3e 0daf 043e fa1c ac3d 57e1 efbd
00000140: c48e f63d 1a4e 883e 9b7e 64be 081d 0c3e
00000150: 3b24 303e a7f3 00be 5103 85be efce 8a3d
00000160: 9c06 ea3d 59ea 40be 64a6 b1bd 0f56 373e
00000170: 7914 8d3e 8998 0e3e 74cb 4abe 7df6 b53e
00000180: 5fc0 613e 97df 673e 1c90 bebc 0fdd 19bc
00000190: daf4 3d3d a42a 583e c350 653e 360f 64bd
000001a0: 5fe9 83bd 8813 adbe b043 9cbe 2fb4 753d
000001b0: 25cc 643d 78bd 803e 89c7 953e 9f4b 653e
000001c0: a7f5 783d b4c3 553e 5b31 5bbe 5434 bfbd
000001d0: 05ce 3e3c 48d9 87bd db1a 2b3e c28d 4b3e
000001e0: d4b0 723e c803 62be d064 723e 837b 573e
000001f0: 7a95 01be f9a2 e1bf cb69 523d b179 9f3e
00000200: a762 7e3d 194c 81bc 97d5 cdbd c6c5 793e
00000210: 169f 1f3e f18a 223e 5e04 3ebe 45fc 17bd
00000220: 308b 2f3e 0ebb e63d 1324 99bd 297f 54be
00000230: f892 6f3e 9da3 163e ff31 c9bd ec11 b0bd
00000240: 3a8c 5fbd b53a 2cbe d40a d3bb fda3 253e
00000250: 5cc4 e33d bba6 d63c 8403 a13e b8f3 0bbd
00000260: 1892 953d 4247 80bd 754e db3d 0d38 06bc
00000270: 1a13 123e 4c0c 4d3e 436a 27be 5376 983c
00000280: f216 2cc0 3aa2 31be 1aa0 e63e e33e 1f3e
00000290: f95d ca3d 51f4 f73e 880d ab3e 0cc0 0cbd
000002a0: fa23 4abd bbb5 98be 8f2c b3be 2cac f0bb
000002b0: 9043 0b3d bdae bebd be51 f6bc ba63 463e
000002c0: 2c0d 153e 10fd 083f 30f4 283d 31c0 8dbd
000002d0: 37a1 c93e cb86 b83e 73b5 933e e0a1 7bbd
000002e0: 6e3f 6d3e ff79 2b3e 8b67 1a3f 8bea 8abe
000002f0: 7b62 a13e 4616 3b3e 5cf1 8dbe 2e3e 7d3e
00000300: cf15 6bbd 492e c43e fd22 94bd 5de3 9b3e
00000310: 2f15 ac3e 2451 803e 8606 4dbc 5008 8e3e
00000320: b779 0dbd ac30 813e 8294 0b3e 9412 7ebd
00000330: 2c98 863e ff9f 3cbd ae4b e53c 37a7 24bc
00000340: 7f3f 4ebd f5f8 893d 9519 393d 086c 16be
00000350: bae2 883e 7f5c d43d d5ce 49be e3c1 b7bd
00000360: d2fa 0a3e fa01 313d 71b7 49bd b5b7 bb3e
00000370: f15c 58bd 6ebf 01be 50a7 5abd 5802 903e
00000380: 35ab 0ebd f0ce df3c cbc1 bfbd d061 e4bd
00000390: 3d74 123e 448e d93d 14c4 153e b702 643e
000003a0: 593e 7cbc a1a4 0c3e 747f 053d a6ce 91bb
000003b0: 6b05 04be 08f0 ea3d 52f1 e7bc 9265 b63d
000003c0: 5ce0 a83e 69c7 93be f190 0f3f a7bd 01bd
000003d0: 8c90 b93e 047d 113e 9c8d 0dbe 163d 1abf
000003e0: 658c ffbc f7fe a4bd 468c 533e 4f91 11be
000003f0: 0ace 2cbe 7c5c 7f3e ae6d 0fbe 0a3b abbe
-0.120414756 0.5151076 0.048852526 0.05985605 0.1864335 -0.22241655 -0.3439954 0.08916318
0.13391495 0.2664435 0.19428451 0.023203906 -0.048252717 0.08008456 -0.34533268 -0.12334462
0.5302959 -0.08161772 0.25835058 0.244996 0.21002002 0.17206436 -0.013953765 -0.021053191
0.14754015 0.040156882 0.04120677 -0.017561367 0.26109278 -0.12216551 0.35076952 -0.1312331
-0.03250119 0.17472503 -0.05988157 0.14458355 0.23716426 -0.07526353 0.33506697 0.015454621
-0.3578119 -0.22830115 -0.39266685 0.17759581 -0.2639005 0.5062949 0.13765611 0.2073093
0.06171822 0.4883789 -0.0867662 0.21024497 -0.05407872 0.110441506 0.041648418 -0.34467068
0.06937777 -0.18023884 -0.25597745 0.074325375 0.22167325 0.10879018 -0.31429997 0.070005916
0.34321487 0.04834828 -0.10250571 0.0075479215 0.11588188 -0.03626611 0.039811984 -0.09100733
0.12634085 0.22507277 0.0039400705 0.50259596 0.1553263 0.12957402 0.08403964 -0.11712902
0.12038949 0.26622087 -0.22313921 0.1368295 0.17201321 -0.12592946 -0.25979093 0.06777751
0.11427042 -0.18839397 -0.086743146 0.17903922 0.27554682 0.13925375 -0.19804174 0.35539618
0.2204604 0.22643887 -0.023262076 -0.009391083 0.046376087 0.21110016 0.2239409 -0.05567857
-0.064409964 -0.33803964 -0.3052039 0.05998629 0.05585875 0.25144553 0.29253796 0.22392128
0.060781147 0.20875436 -0.21405546 -0.09336153 0.011645799 -0.0663324 0.16709463 0.19878295
0.23700267 -0.22071755 0.2367127 0.2104321 -0.12654677 -1.762786 0.051370423 0.3114753
0.0621058 -0.015783357 -0.10050505 0.24391851 0.1558803 0.15873314 -0.18556353 -0.037105817
0.1714294 0.112661466 -0.07477584 -0.20751633 0.23395908 0.14710851 -0.09823989 -0.08597168
-0.05457709 -0.1681927 -0.0064405 0.16175838 0.11121437 0.02620255 0.31447995 -0.034167975
0.07303256 -0.06263591 0.10708324 -0.0081920745 0.14265099 0.20024222 -0.1634913 0.018611109
-2.6889005 -0.17347041 0.45044023 0.15551333 0.09881205 0.48428586 0.3340876 -0.034362838
-0.049350716 -0.2982615 -0.34994933 -0.0073447432 0.03399998 -0.093106724 -0.030068275 0.1937398
0.14555806 0.5351114 0.0412485 -0.06921423 0.3938081 0.3604034 0.28849372 -0.061433673
0.23168728 0.16745757 0.60314244 -0.27132067 0.31520447 0.18270215 -0.27723205 0.24730751
-0.057393845 0.38316563 -0.07233236 0.30446902 0.33609912 0.25061905 -0.012513762 0.27740717
-0.034539904 0.25232446 0.1363087 -0.062029436 0.26287973 -0.04605102 0.027990188 -0.010049633
-0.050353523 0.06736938 0.045190413 -0.14689648 0.2673548 0.10369205 -0.19707806 -0.08972528
0.13572243 0.043214776 -0.04924721 0.36663595 -0.05282301 -0.12670681 -0.053382218 0.28126788
-0.034831244 0.027320355 -0.09363135 -0.11151469 0.14302154 0.10622838 0.14625579 0.2226666
-0.015395724 0.13734676 0.032592252 -0.0044496832 -0.12892692 0.114715636 -0.028313313 0.08906092
0.32983673 -0.28863075 0.5608054 -0.031675007 0.36243093 0.14207846 -0.13823551 -0.6024946
-0.031194875 -0.08056443 0.20658979 -0.14215587 -0.16875473 0.24937624 -0.14006683 -0.3344348

encoder.2.bias f4 [40]
00000000: 9066 133e 04dc 1e3e 2b98 fabe 2ab2 bd3d
00000010: cad3 cd3d a542 263e e020 96be 5ed9 ce3e
00000020: 9323 e3be 7c5b 5b3e af01 6b3e afe8 e43d
00000030: 1ae7 473e 7e6f ed3d 801a aa3e 1212 8bbd
00000040: ea75 d43d d4d4 9cbe 944f 563e 9263 583e
00000050: a487 2e3d d28f 1dbd 4e57 b23e 27f5 5b3e
00000060: ef02 7c3e 6a4a 063e 8e60 c8bd bfea 44bf
00000070: 4d27 ad3e 3980 9b3d 2a0f 453e ba9b 5f3e
00000080: cf55 af3e 696d 403e 5733 46be 2913 033e
00000090: 7cce 6ebd 8c94 7ebe ca00 1e3d aa5f 83be
0.14394593 0.15513617 -0.4894422 0.09262498 0.10050161 0.1623636 -0.29321957 0.40400213
-0.44363078 0.21421617 0.22949861 0.111771934 0.19521752 0.11593531 0.33223343 -0.06790556
0.10374053 -0.30631125 0.20928794 0.21131733 0.042609826 -0.038467236 0.34832233 0.21480237
0.24610494 0.13114324 -0.09784041 -0.76920694 0.33819047 0.07592816 0.19244066 0.21836749
0.34245154 0.18791737 -0.19355522 0.12800278 -0.058302388 -0.24861354 0.03857497 -0.25658923

encoder.4.weight f4 [6, 40]
00000000: 0696 813d cc04 71bd df38 533e 79d0 29bd
00000010: 4ce1 f13d 73e2 583d b40e 2bbd 6ced 403e
00000020: cbfb 01be d8a3 b43b 0dab 5b3e 79fc c9bd
00000030: 7548 3f3e 1a01 383e 754f 893e 97ee 173e
00000040: 4e86 503e 3cd8 03be d931 febd f35c 7fbe
00000050: c32a 46ba 7e2c 153e da13 0a3e d47d aaba
00000060: 93ff 6d3e 9518 503e f7e3 4cbd bae9 843e
00000070: 3199 893e 402d efbd 3971 c13d 39d2 30be
00000080: 7c52 243d 348c 5d3d 11e1 14be ecdf 0f3e
00000090: 33a9 c5bd 2dec 403e 78bd 153e 4586 ae3d
000000a0: 149a 843e 0d2e 773e 340b d8bd ab30 b23d
000000b0: f559 4d3e 55dc 5c3e 2dfc 903e 6a75 5e3d
000000c0: 8573 29bf 5c5f e03e 3274 0d3e 98cd 4fbd
000000d0: 7d1f b13e 2ccf 77bd e146 d1bd 4234 00be
000000e0: 9ec4 bd3d 8cf4 0ebe c39f e13c 3910 57be
000000f0: fc91 473e 63a4 ffbd 1bdf 5a3e 2af1 30bd
00000100: 2b75 2ebc 7ca9 063e 94bb 1e3d 5184 193c
00000110: 479e da3d cb2a 66be df39 2c3e 2275 07be
00000120: c159 5b3d ddd5 993e 98cb 30be 2cee 3e3e
00000130: b3aa ae3c 2085 0bbe fbad 143d 9e5e 273e
00000140: 9ea8 9c3c f6cf e2bd 1026 dd3e f1dd 83be
00000150: c186 dfbd 2d52 a33d 9b4e 4b3e cc7c 223d
00000160: 3b9f 81be 7d4f ba3c 615f 9e3c 8c51 143d
00000170: ccac 0f3e 8a44 8e3d 17a6 2a3d 1ef6 b6bd
00000180: b4d5 963d 6b7b b53d c904 213e 7713 a1bc
00000190: 9173 d73d 8f39 ed3d 37ef a1bd 5935 c5bc
000001a0: 9bb7 98bd ec67 283d a882 86bd b25d 033e
000001b0: 85ea 483e 836a 30bb 2c40 113c a9cc 553f
000001c0: 18b0 e33c a2f8 643e 96ef d1bd c428 f33d
000001d0: 46c4 603d 7706 ae3d 7bd7 113d 3927 c0bc
000001e0: 8ec5 a83e 0df1 7b3d d3c2 053f e1fb acbd
000001f0: abe8 2dbd e5ff 363e 77b3 4dbe e71f 6a3c
00000200: e71e e23c 4140 0abd b906 3a3d 899d febc
00000210: 26bc 463e 0f43 353e e43a 7d3e 2645 0bbe
00000220: ddda d03c 4d12 e83c 72f9 633e 8461 b4be
00000230: 8987 cc3e f662 803e 77c4 8cbd a0d3 8e3e
00000240: a8ae c93e 2ca9 0bbe 3097 913e 7f74 f13e
00000250: 7d18 d3bd 8c80 3bb8 af91 ac3d 8ec5 d93d
00000260: 5687 95bd 5c94 163e 655a b9bd 939e 663e
00000270: a0d6 813d 7615 28be cfef d33d bfae 04bb
00000280: 89aa e93d 4f39 4f3e 7c92 bf38 4bd7 243e
00000290: aa4d be3d 2941 053e f199 15be 3a35 933e
000002a0: 7e6f 17bd bf23 e1be c6e8 bebd c2ca 443e
000002b0: 303f 293e c6df 8cbd 1265 383e aaec 19be
000002c0: 1b1b c4bc 9d88 c8bd 8308 7b3e b89a c3bd
000002d0: d67c 78be 2a68 5a3e 0897 7c3d 05ff 0d3e
000002e0: afab 6c3e dc6b 203e 0ac0 143b 6c85 4d3e
000002f0: 9aa2 763e 3bc4 963e 0c34 153d 3680 a23d
00000300: de88 703e d65f 4c3e 7adf 19bc 28d8 aebd
00000310: 9b23 9f3e 51cf c2bd 78ad d63c 0092 443d
00000320: 5ef3 d2bd 2895 9fbd 8310 febd 369f 26be
00000330: 3ca4 4d3c 1e6e 21be dbf0 923d 7e1f 253a
00000340: 4b07 e83d b865 0abe 7252 743d 4288 a03d
00000350: 4fca 023e f945 ffbd bf70 713c 386a 9ebd
00000360: 6e9f 96bd bb42 1ebe b7aa 6b3d fbf0 c83d
00000370: 64c6 9dbc c6d0 6fbc 2888 383a e3fe 12be
00000380: bf53 2fbe 055a 9d3d b101 033e 1019 00bd
00000390: fabf 76bd 9905 203e b96d 853d 8089 16be
000003a0: d508 0ebe 76e3 70bd 8d65 503d 1d9f 8d3d
000003b0: a31a edbd 8536 89bd b4ee 96bd 01bc 01be
0.06327443 -0.058842465 0.20627163 -0.04145858 0.1181055 0.052950334 -0.04176207 0.1884057
-0.12693708 0.0055126958 0.2145197 -0.098626085 0.18679984 0.1796917 0.26818433 0.14837109
0.20363733 -0.12875456 -0.124118514 -0.24937801 -0.00075594726 0.14567754 0.13484135 -0.001300747
0.23242025 0.20321877 -0.05002209 0.2595957 0.26874688 -0.11678553 0.09445424 -0.17267694
0.040117726 0.054088786 -0.14538981 0.14050263 -0.09651413 0.18840094 0.14623058 0.08521704
0.25898802 0.2413866 -0.10549012 0.08700689 0.20053847 0.21568425 0.28317395 0.054311194
-0.66191894 0.43822753 0.13813856 -0.05073318 0.34594336 -0.06050031 -0.10218597 -0.12519935
0.092660174 -0.13960475 0.027542 -0.21002282 0.19489282 -0.12482526 0.2137417 -0.043198742
-0.010648052 0.1315059 0.038753107 0.009369926 0.1067472 -0.22477262 0.16818951 -0.13228276
0.053552393 0.30045977 -0.17265165 0.18645543 0.02132163 -0.13625002 0.036298733 0.16344687
0.019123372 -0.11074822 0.43193102 -0.25755265 -0.10914374 0.07974658 0.19854204 0.039669797
-0.25316796 0.022742981 0.01933259 0.03621058 0.1403076 0.069466665 0.041662302 -0.08933662
0.073649794 0.08861431 0.15724482 -0.019662602 0.105200894 0.11583244 -0.07906955 -0.02407329
-0.07456895 0.041114733 -0.065678895 0.1282871 0.19620712 -0.0026918955 0.008865397 0.8351541
0.027793929 0.22360471 -0.102507755 0.1187301 0.05487468 0.08497327 0.03560589 -0.023456203
0.32963222 0.06150918 0.52250403 -0.084464796 -0.042458218 0.17871054 -0.20087992 0.014289833
0.027602626 -0.033752684 0.045416567 -0.031080978 0.1940771 0.17701362 0.24729496 -0.13600597
0.025494987 0.028329039 0.22263125 -0.3523065 0.39947155 0.250755 -0.0687341 0.27895832
0.39391065 -0.13638753 0.2843566 0.47159192 -0.10307405 -4.4703993e-05 0.084262244 0.10633384
-0.07301204 0.14705032 -0.090504445 0.22521429 0.063397646 -0.16414437 0.10348474 -0.0020245758
0.1140948 0.20236705 9.1348746e-05 0.16097753 0.09292157 0.13013138 -0.14609505 0.28751546
-0.03697156 -0.43972585 -0.09321742 0.19217971 0.1652801 -0.06878619 0.18007305 -0.15031686
-0.023938706 -0.09791682 0.24514966 -0.09550995 -0.24266371 0.21328798 0.061667472 0.13866813
0.23112367 0.15666145 0.0022697472 0.20070428 0.24085465 0.29446587 0.03642659 0.079346105
0.2348971 0.19958434 -0.00939166 -0.08537322 0.31081852 -0.09512199 0.026205763 0.0479908
-0.10300325 -0.07792121 -0.12405493 -0.16271672 0.012551364 -0.15764663 0.07174846 0.0006298943
0.11329516 -0.13515365 0.05964894 0.07838489 0.12772487 -0.12464518 0.014736353 -0.07735103
-0.073546275 -0.15455143 0.057535853 0.098115884 -0.01925964 -0.014637178 0.0007039332 -0.14355044
-0.1712179 0.076831855 0.12793614 -0.0312739 -0.060241677 0.15627135 0.065150686 -0.1470089
-0.13870557 -0.058810674 0.050878096 0.06915114 -0.11577346 -0.06699852 -0.07369748 -0.12669374

encoder.4.bias f4 [6]
00000000: 936f 453e 38a3 8f3d 0260 bb3b 787c a43e
00000010: 2c85 5c3e 8513 1f3d
0.19280843 0.070135534 0.005718232 0.32126212 0.21535176 0.038836975

decoder.0.weight f4 [40, 6]
00000000: b94e 81be ca5a 193e 8d38 893e 4f53 953e
00000010: 4208 e63d a50a 073e 000e e73d f8c7 f2bc
00000020: 4efd bb3e 1f02 073f a558 10be 3ea4 303d
00000030: fe80 45be 112e a83e ae48 b1be 7c82 833e
00000040: ba70 af3e 07b4 d73d 2e5f 3dbe d179 da3e
00000050: 46ec 833e 36ac 493e e70b 98be 3488 5a3e
00000060: e6af 263f be16 c1bd f423 53bd 9f31 33bf
00000070: 5aa6 84be 8c2c 87bd a9e1 33bd 1f0d da3e
00000080: 8ee3 17be abc1 9bbe 161c cc3e b736 3d3e
00000090: 0448 e83e 6b4f 87be c02a 193f cbb6 ebbe
000000a0: c44a 733e 1882 ca3e c418 0b3e 85c8 403e
000000b0: c8e7 dabd 1719 b73e 45c6 92be 4df9 a7be
000000c0: b0c1 cd3e 1a81 53be 0279 bf3e 3451 f7bc
000000d0: c5c3 6b3e b189 623e 0c20 0d3e 3746 8dbe
000000e0: fce0 473e 40e9 fbbd 6a04 a33e c7be 7f3d
000000f0: b8b8 ce3e c0b8 813e 4dd3 adbd 48a0 95be
00000100: 934b 883e e791 5ebe 591e 963e bd8b ca3b
00000110: 471a 0cbf c12d 123e 9877 103e 0e7f d63d
00000120: b00d 16be 7502 f1bd ee74 a93d 26d8 2fbe
00000130: 0d19 bd3d 8a60 7bbd 6c3a 73be 37f0 c13e
00000140: 1780 373e 20b4 813e 7145 013f c8a6 8dbe
00000150: effd f83e 2d50 61be 7ef2 14bd f7b6 f63d
00000160: dc9d a43e f2f8 89be f906 e93e e72a 943e
00000170: 7819 8b3e 7115 8ebe 737f b33b 29f3 a9be
00000180: 070f df3e 0dc3 5e3e 306f ff3e e4a4 3abd
00000190: 928a 7abe e99f 993e fd27 983e 8633 8d3e
000001a0: efef cdbe 434c 153e 952e b2be ac93 793d
000001b0: 7c9a a1be a43d e6bd 1d1f 45be 8240 90bd
000001c0: 2c7e 72be c14e 203d fd87 67bd fa98 853e
000001d0: 341e ed3d 2dce a2bc 53f2 723e 0439 b1bd
000001e0: 1383 e23d 1465 f73e b3fe dcbe 75ba d3be
000001f0: e88a b8bd 8d3e 36be baea aebe 9866 6c3b
00000200: a148 a53e d46c 8ebe 9d8b 103f cea8 a63e
00000210: f4ed 503e 17a0 a13e d31e a6bf 6c6e a2be
00000220: 45e5 9c3e 110e 9e3e 369d 55be 4ae6 9a3e
00000230: 9577 c53d 5881 fabe ce51 4a3e 451f b33d
00000240: c4dc 03be 7a83 4f3e b9da a33e cda7 96bd
00000250: 33ba cc3e 379c b93e d8a0 053f dfee 913e
00000260: 30f4 8dbd a81e 663d ea39 2ebe 40d8 abbe
00000270: 58aa b1be 93ed 3a3e 82ab 333f 53f8 98be
00000280: 3a68 d8be 0a2f a53e 691e 803e 3622 87bc
00000290: d38c 273f 4f84 91be f796 8f3e 35f8 c2be
000002a0: b9b3 823e 7dd3 26be 6d0a 953d 8d27 8f3b
000002b0: 5a3b 933e 3db1 463e 5eb1 1fbc 219a 0c3f
000002c0: 8960 8f3e 0885 03bf b4ed 9f3d 3248 3cbd
000002d0: ff08 56be 7f9b e93e 827c c0be ebaa 3e3e
000002e0: 630f adbe 4207 98bb 487d 253f c864 d8be
000002f0: 6f94 cc3b 9e43 77be 7bc1 d13b 6ac2 f7ba
00000300: 644b 63bf fe63 353e 73cd 6ebd 42d3 8f3e
00000310: 4b9d 043e 69f3 38be ba97 9b3d fd73 05bf
00000320: 926c 56be a424 0f3f 9687 23be 2b2e 2ebe
00000330: 269a 34be b478 993e 075d 47bd 4087 b93e
00000340: 8bd0 5ebe 3461 8b3e 42de 8b3e 3d93 21be
00000350: 1e81 11bf 17b0 723e 4d0b b73e 761b 70be
00000360: a61c e63d 81d3 f43e fdd8 39bf 8858 083e
00000370: 4cdb 03bf 33bf c2be 8dc6 023d 1b3b 15be
00000380: 0a74 4d3e 723d d53e 0bea 28bf a16c d73d
00000390: 9449 62be 61b2 d0be 2eb9 a63e 197d 0bbe
000003a0: 7de3 c3bc 53b2 a5bc 488f d6bd c5d4 b8be
000003b0: 0c8a f83e 86b1 103e 276d 603e 7880 693e
-0.25255373 0.1497604 0.26800957 0.29165122 0.11232044 0.13187654 0.11281967 -0.029636368
0.36716694 0.5273761 -0.14096315 0.043125384 -0.19287488 0.32847646 -0.34625763 0.2568549
0.3426569 0.10532384 -0.1849334 0.42671064 0.257662 0.196946 -0.2969658 0.2134102
0.6511215 -0.09428166 -0.05154796 -0.6999759 -0.25908166 -0.066002935 -0.04391638 0.42588136
-0.14832899 -0.30421194 0.39865178 0.18477903 0.45367444 -0.2642778 0.59830856 -0.46037897
0.2375899 0.3955238 0.13583666 0.18826492 -0.1068874 0.3576133 -0.28666893 -0.3280739
0.40186834 -0.20654717 0.3739701 -0.030190088 0.23023899 0.22122838 0.13781756 -0.27592632
0.19519418 -0.12300348 0.31839305 0.0624378 0.40375304 0.25336266 -0.08487568 -0.29223847
0.2662016 -0.21735345 0.29320028 0.006181209 -0.54727596 0.14275266 0.14108121 0.104734525
-0.14653659 -0.11768047 0.08274256 -0.17172298 0.09233294 -0.061371364 -0.23752755 0.37878582
0.17919956 0.25332737 0.50496584 -0.27666306 0.48631236 -0.22003241 -0.03636407 0.120466165
0.32151687 -0.26947743 0.45513132 0.28938982 0.2716787 -0.27750733 0.0054778396 -0.3319333
0.43566152 0.21754093 0.49889517 -0.04556741 -0.24466923 0.30004814 0.2971801 0.27578372
-0.40222117 0.14579873 -0.34801164 0.060931846 -0.31563175 -0.11242226 -0.1925015 -0.07043554
-0.23680943 0.039137606 -0.056526173 0.26093274 0.115780264 -0.019873703 0.23725252 -0.08653453
0.11060157 0.48319304 -0.4316307 -0.41353193 -0.09010869 -0.17797299 -0.34163457 0.0036071893
0.32281974 -0.27817404 0.5646303 0.32550663 0.20403272 0.3156745 -1.2978157 -0.3172487
0.3064367 0.30870107 -0.20860752 0.30253822 0.09641949 -0.48926806 0.19757769 0.087461986
-0.12877184 0.20264998 0.3200281 -0.07356224 0.3998581 0.36251995 0.52198553 0.28502557
-0.06931341 0.05618158 -0.1701428 -0.33563423 -0.34700274 0.1825469 0.70183575 -0.29876956
-0.4226702 0.3226245 0.250232 -0.016495805 0.65449256 -0.28421256 0.28044865 -0.38079992
0.25527743 -0.16291614 0.07277379 0.0043687285 0.2875622 0.19403549 -0.0097468775 0.5492268
0.28003338 -0.51374865 0.0780901 -0.04596729 -0.20901869 0.45626447 -0.37594992 0.18619888
-0.33800802 -0.004639537 0.6464429 -0.4226439 0.0062432806 -0.24146888 0.0064012385 -0.0018902544
-0.8878691 0.17713925 -0.0583014 0.28090864 0.12950628 -0.18061604 0.07597299 -0.5213011
-0.20939854 0.55915284 -0.1596969 -0.17009799 -0.17636928 0.29974902 -0.048672702 0.36236
-0.2175924 0.27222598 0.27318007 -0.15778823 -0.5683764 0.23699985 0.3575081 -0.23447976
0.11235933 0.47817615 -0.7259672 0.13315022 -0.51506495 -0.38036498 0.031927634 -0.14573328
0.20063797 0.41648442 -0.6598212 0.10518766 -0.2209838 -0.40761092 0.32563156 -0.1362194
-0.023912186 -0.020226633 -0.104765475 -0.3609983 0.4854282 0.1413022 0.21916638 0.22802913

decoder.0.bias f4 [40]
00000000: fc79 fb3c 184e 073d 49aa a13e cb84 273e
00000010: 5f42 b93e 77a6 d83d 2faf 69bf 3332 d23d
00000020: 0a08 2dbc d7ac 2c3f 6f87 9fbe aa98 60be
00000030: 502f afbd 1cfd 2bbe 563f 74bc 800b d83d
00000040: 6a71 62be f2cc f83e 67d8 50bc 21bf 90be
00000050: 6d68 b43e e692 7c3d 5a05 2d3f 66f9 573f
00000060: 43b5 66bd 4f32 7abe 0455 0a3f e5c7 f33d
00000070: 49c8 b7be 21d4 5fbf c72a cd3d 2d3f 4d3e
00000080: f29a a43e ff59 c63d f797 da3c 2f34 dcbe
00000090: 02bc ef3a 166a 1d3d 9ddf 9dbe b51b 60be
0.030697815 0.03303346 0.3157523 0.1635925 0.3618345 0.10578626 -0.91282934 0.10263481
-0.010560999 0.6745123 -0.31158015 -0.21933237 -0.08553946 -0.16795772 -0.014907679 0.105490685
-0.22113577 0.4859386 -0.012746907 -0.2827082 0.3523592 0.06166353 0.6758629 0.84364927
-0.05632521 -0.24433254 0.54035974 0.11903361 -0.35894993 -0.8743306 0.10017925 0.20043631
0.32149464 0.09685134 0.02668379 -0.43008563 0.0018290284 0.03843125 -0.30834666 -0.2188557

decoder.2.weight f4 [20, 40]
00000000: ecf5 b4bd 6f67 0abd 42f2 613d c9f8 34bc
00000010: eaa2 303f beaa f83d 5c08 243f c75e d9bd
00000020: 2f0c 373e 9859 1e3e 6232 a83e 6f6d 8d3d
00000030: ef03 b83d 57c2 7ebe ae7c bdbd 84e9 4c3e
00000040: c978 7d3d 08ae 7e3c 6b08 84bd 4457 a23d
00000050: f5f2 aa3e c262 ea3d 2c6a de3c 07f0 3bbe
00000060: 0350 41be 7100 bcbc e89b e43d 11dc 053e
00000070: a691 33bb 8a3a 3bbe e9bc 903e e941 093f
00000080: 1c5b 8e3e 0b6e c03e e0e6 d13d fd14 10be
00000090: a34c debd f868 b2bc edb9 9bbc 1f9e f8bc
000000a0: 9fec 933d da6a a53c 771c dfbc d906 66bd
000000b0: 1418 d2bd 529a 0ebe 8593 073d d4a7 c93c
000000c0: 6657 b1bb b901 18b9 3eff 19be 6d76 6e3d
000000d0: d236 9bbd f7a9 33bd 2a51 b83d 8ded ecbc
000000e0: c53c 4abd ac7e ddbd 13ee 77bc f5c1 1cbe
000000f0: b6d2 f2bd 58fd 903d 4159 10be 9c87 d4bd
00000100: d117 12be 2ad7 863d 4199 09be 26c1 50bd
00000110: ab8b 14be 165e f13d 5d9c 82bd 032a fabc
00000120: 128a ee3c 32a4 6d3d cf08 6dbd 1ee3 ccbb
00000130: 3854 d03d a29f f6bd 59e8 21be 4504 ebbc
00000140: c55a 5d3c 6ebd 84bd c975 cdbd 91a4 48bd
00000150: 51fe 153e 72e9 92bd b4e4 163e 8cd7 de3d
00000160: 059d 11be f54d 0bbe f2d8 e53d e632 bdbc
00000170: 29d6 133e b2bc a5bd 817c b5bc 71f7 aebd
00000180: 3458 09be d033 47bd 9127 6ebd 2bb7 d73d
00000190: ee84 e53c a7d9 dfbd 5f6c 283d 309f 2abe
000001a0: 34bd 8bbd a70c eebd 1a2e fabd 989c ddbc
000001b0: a3f2 96bd 23bf 903d 5576 ef3c 871c dabd
000001c0: e232 e23d 3b3e 123e 5005 3f3d faf7 ad3d
000001d0: 53f6 a4bd 1103 73bc 7eb7 fbbd 8615 e9bd
000001e0: 0a06 c0bd 04bb 913d c387 16bd ace9 043e
000001f0: 44ed d13e cdc5 d03c 29a6 1abf 44db 913d
00000200: 4482 053e 1ea4 9bbc 19e6 593e a638 86bd
00000210: 01da 08bd c1b8 57bc 5238 19be fcc4 8b3e
00000220: 030e 863e 90f7 fdbd 2890 95bd 480a 49bd
00000230: 403d 003e 8c1c d13d 98dc 9bbd 3b19 fa3c
00000240: a5de 14be eacf 543d 406f 5e3f 8562 c53d
00000250: 4ebd a3bd e364 3f3f a706 b8be 652e 95be
00000260: 44e2 813e 01a9 05be aea8 053e 62c9 753b
00000270: b33b a0be 47d2 d33e f981 813d e3b7 813c
00000280: 9f88 903e 8bbb 8a3e a09c 8a3e 6b57 593e
00000290: cf2b 2e3f 9a04 4a3d 096e 0f3f d445 8b3d
000002a0: 0b67 d1bc 4e0b 81bd 8f8a 5abc 24de 473e
000002b0: ead6 d43d 0cce 4c3e 4325 10be f628 63be
000002c0: f12b a5be dac1 2abe 7972 b1bc f429 003e
000002d0: fcbc ffbe fb27 e73e 8cff 953e b984 ac3d
000002e0: 7510 4b3e 07fe d9be ab3b 693f e971 50bd
000002f0: e355 40bd a88c 07bf 9520 963d 5c5c 4e3e
00000300: 2b22 f13e 62c1 76be dd76 9a3e ebb0 99bc
00000310: c150 76bd cf38 253f c269 07bd 9780 5d3e
00000320: 5284 b5bd efc3 1cbf 1785 b93a 5ea8 20be
00000330: 6f80 ae3d 2422 943e 1c10 2b3e 53eb c0be
00000340: 4182 013e dff4 0b3e 0582 443e 1b19 84be
00000350: bfbc c6bc b022 163d e762 b0bd ff7e 143e
00000360: 3394 0cbe ea29 6a3d 778b 92bd b524 013e
00000370: 2f09 91bd d349 aa3e 0836 1e3e 8532 343f
00000380: 6d8e c6bb 1d90 41be 1d4c a73e e109 733d
00000390: 28b7 8a3d 9f56 00be 41f2 b03e e5d7 ab3c
000003a0: 9854 393f 0fa6 ff3e 44de 35be a8ae 163d
000003b0: 6159 283e 1ca5 893e 5b64 01be cdff a2be
000003c0: 8efa 95bb 40de 31bb 6ec8 60bd df8c 803e
000003d0: ac8e 8a3e 70c2 b6bd f946 143f f17e ac3d
000003e0: 3059 cfba cf20 c13a f059 5bbe cdbd 9f3d
000003f0: 8371 883d 1d61 38be c3dc a03d 82f1 893e
-0.088359684 -0.03379005 0.055162676 -0.011045643 0.6899859 0.121419415 0.64075255 -0.106137805
0.17875741 0.15463865 0.3285094 0.069056384 0.08985125 -0.24878822 -0.092522964 0.20010954
0.061882768 0.015544422 -0.06446918 0.07926801 0.33388487 0.11444618 0.027150236 -0.18353282
-0.18878178 -0.02294943 0.11162549 0.1307223 -0.0027400046 -0.1828405 0.28269127 0.53616196
0.27803886 0.37583956 0.10249114 -0.14070506 -0.10854461 -0.021778569 -0.019009555 -0.030348836
0.07222866 0.020192552 -0.027235253 -0.056158874 -0.10258499 -0.13926056 0.03309967 0.02461616
-0.00541203 -0.00014496491 -0.15038773 0.05821841 -0.075788155 -0.043863263 0.08999856 -0.028921867
-0.04937436 -0.10815176 -0.015132445 -0.15308364 -0.11856596 0.070795715 -0.14096548 -0.10377428
-0.14266898 0.06584008 -0.13437368 -0.05096545 -0.14506404 0.117855236 -0.0637748 -0.03053761
0.029118571 0.058017917 -0.05786973 -0.0062526604 0.101723135 -0.12042166 -0.1581129 -0.02868856
0.013510411 -0.06481443 -0.10032231 -0.048985068 0.14647795 -0.071734324 0.14735681 0.10880956
-0.14220054 -0.13603957 0.1122302 -0.02309556 0.14437164 -0.080926314 -0.022154095 -0.085432895
-0.13412553 -0.048633397 -0.058143202 0.105329834 0.028017487 -0.10930186 0.041118976 -0.16662288
-0.06823197 -0.11623507 -0.122158244 -0.027052209 -0.07370498 0.070677064 0.02923123 -0.106499724
0.110448614 0.14281552 0.046635926 0.084945634 -0.08054795 -0.014832274 -0.12290858 -0.113810584
-0.09376152 0.071157485 -0.036750566 0.12979764 0.41001332 0.025484944 -0.6040979 0.071219
0.13037974 -0.018999156 0.21279182 -0.065537736 -0.03341103 -0.013166607 -0.1496289 0.27298725
0.26182565 -0.124007344 -0.07302886 -0.04908207 0.12523365 0.10210523 -0.07610434 0.030529609
-0.14538057 0.051956095 0.86888504 0.09637932 -0.079950914 0.74763316 -0.35942575 -0.2913696
0.2536794 -0.13052751 0.13052627 0.0037504067 -0.31295547 0.41371366 0.063236184 0.015834754
0.28229234 0.2709621 0.2707262 0.21224754 0.68035597 0.049320795 0.56027275 0.06800428
-0.02556183 -0.06300984 -0.013338699 0.19518334 0.10392554 0.20000476 -0.14076714 -0.22183594
-0.32260087 -0.16675511 -0.02166103 0.12516004 -0.4994887 0.4514769 0.2929653 0.08423752
0.19830497 -0.4257662 0.9110667 -0.050889883 -0.046956908 -0.52949 0.07330433 0.2015242
0.4709638 -0.24097207 0.3016881 -0.018761119 -0.060135607 0.6453981 -0.033059843 0.21631084
-0.08863129 -0.6123647 0.0014154044 -0.15689227 0.085205905 0.28932297 0.16705364 -0.37679538
0.12647344 0.1366763 0.19190224 -0.25800404 -0.024259923 0.036654174 -0.08612614 0.1450157
-0.13728409 0.05716888 -0.07155507 0.12611659 -0.0708183 0.33259448 0.15450299 0.70389587
-0.006059459 -0.18902631 0.32675257 0.059335593 0.067732155 -0.12533043 0.34559825 0.02097697
0.72394705 0.4993138 -0.17760569 0.03678766 0.16440345 0.2688378 -0.12635939 -0.31835786
-0.0045769876 -0.0027140528 -0.054878645 0.25107476 0.27061975 -0.08923805 0.57920796 0.0842265
-0.0015819427 0.0014734509 -0.21421027 0.077998735 0.06662276 -0.18005796 0.07854607 0.26942068

decoder.2.bias f4 [20]
00000000: f3b0 8d3d ae0e 21be b9bb 4b3d c27b b63c
00000010: 7cbc dc3d a732 83bd 7075 f03d 2cbd b8bd
00000020: 61d7 5abe b69a ed3d 6202 b4bd df27 993d
00000030: 93a1 bfbd 6c10 cabe ef09 cfbc 2201 9f3c
00000040: 45bd d53e cf78 cd3d 1b23 2fbe e7a2 81bd
0.06918516 -0.15728256 0.049739573 0.02227581 0.10778138 -0.064061455 0.117411494 -0.09020457
-0.21371223 0.116017744 -0.08789517 0.07478308 -0.0935699 -0.39465654 -0.025273291 0.01940972
0.41745964 0.10032808 -0.17103235 -0.06329899

decoder.4.weight f4 [9, 20]
00000000: 783c dabc f259 e53d ba11 aebd 21aa 37bd
00000010: 0376 113e c537 5abe 5c28 6abe 8502 43be
00000020: c467 1a3f e01d 953d 45c8 143e 4fc4 ce3c
00000030: 77d9 99be 99c7 353e 885d beb8 be3b 03bb
00000040: 23e0 823c 2279 473d 8380 bd3e 70be e8bd
00000050: 45ac cebd 03f8 2abc a49b 35be fee2 9dbe
00000060: 9b90 2f3e f82b e3bd 2de0 31be c651 0fbe
00000070: 58a4 643d fcca be3e 19a6 33be 3cb9 bbbe
00000080: e1ac c8bd 7642 693e f005 013e 72f8 55be
00000090: 80ba 90bd 1bc2 d7bd b17e 873e 2fd1 943d
000000a0: 0db9 fdbd 8940 5bbe 0784 983d 0847 bdbd
000000b0: 6f44 403e 126c 033e 0b91 c5be c393 a23e
000000c0: de8b 96be d4ec 9d3e dd6e 643e db65 783d
000000d0: 60cb c9be ee27 913e 9ad6 0f3c 5089 5f3c
000000e0: d22e 0ebe b54e 78be 64db 923e dd03 263e
000000f0: 3c1f 98be af09 2e3e 2238 253e ef94 3ebc
00000100: 11d0 88bd 818f 32be e5ff 16be c798 9dbe
00000110: 3ca9 17be 49e2 953e f4ba 4bbc 0e1f 4fbc
00000120: f0d6 403d 0fb9 393e 247a d23e fefb a1be
00000130: 8f82 8abe 1286 333e 2dd6 2c3e 1bcc 313d
00000140: 6bb5 e3be 98cf 4bbe ea84 2abe 846f 51bd
00000150: d1b6 b73e 94eb 03bd a43e 8abd a27a 6bbe
00000160: 2468 293b d2f7 f0ba 080d 373c 97b1 f73d
00000170: 3689 3e3e 01ee 50bd 7138 b73e 58fa bd3c
00000180: c332 8fbe ef06 d8bd c247 1dbe 1476 34be
00000190: 8d65 94be c58d 57bd 8408 36be 9d71 083c
000001a0: 9884 e73e a9cc 72bd 06cb 83be d7e2 d7bb
000001b0: 5101 673e ef60 db3d 6458 debd 5ddf 243e
000001c0: c5de 763e efd9 64be 132b d43d 8e5b 403e
000001d0: 16a8 7dbe 443a 19be 5c7f 95bd 8edd 66be
000001e0: becc 76be 7d26 c6bd 4a7b b2bc 4fe7 95be
000001f0: 078d 753e 6419 22be 10e1 bebe 141e 00bd
00000200: 837f f5bd 8202 823d 8171 cf3d 751e 30be
00000210: 727b 8e3e 3a14 5abe 2856 843e 622e 043e
00000220: e61b c33e cabb 88be f709 703d a03c 2cbe
00000230: 27ae 39bd 780e 94bb abe9 623d 5c89 af3d
00000240: c834 4e3e 6e50 1e3e 5abf acbd 6aef 5dbe
00000250: bc97 ea3d ebff 983e 733b 5c3e 993a e5bd
00000260: 9f9c 7dbe e198 c4be 0ad8 603e b2da 91be
00000270: cee5 3a3d b898 2e3e 754e 013e 71b1 5bbd
00000280: 062c cfbc eccb 52be 7326 9cbd d25b 75bd
00000290: 9aa3 333e 02de 0c3f a83b f8bd 94fc c1bd
000002a0: 1449 bdbd 26e9 113b 4e6e 34bd 3f8b 4c3d
000002b0: 4369 7ebe 134e 89be 5364 713e 1826 48be
000002c0: 46a9 263d 983d 923e ca80 9b3e 7293 f93d
-0.026640162 0.11198796 -0.08499475 -0.044839982 0.14205174 -0.21310337 -0.22866958 -0.1904393
0.60314584 0.07281089 0.14529522 0.025240092 -0.30048725 0.17751922 -9.0773276e-05 -0.0020024623
0.015976017 0.048699506 0.3701211 -0.11364448 -0.100914516 -0.010435107 -0.17735153 -0.30837244
0.17145006 -0.11092371 -0.17370673 -0.13996038 0.055820793 0.3726424 -0.1754383 -0.3666476
-0.09798599 0.22779259 0.12599921 -0.20895556 -0.07066822 -0.105350696 0.26463845 0.07266461
-0.12388811 -0.21411337 0.07447057 -0.09242064 0.18776105 0.12834194 -0.38587222 0.31753358
-0.29403585 0.30844748 0.22307916 0.060644012 -0.39412975 0.28350776 0.008779192 0.013643578
-0.13885048 -0.24248774 0.28683007 0.16212411 -0.2971133 0.16995881 0.16134694 -0.011632188
-0.066803105 -0.17437555 -0.14746054 -0.30780622 -0.14810652 0.29274204 -0.01243471 -0.012641681
0.04707998 0.18137 0.4110881 -0.31637567 -0.27052733 0.17531613 0.16878577 0.04340754
-0.44474348 -0.1990341 -0.16652265 -0.05113174 0.35881665 -0.032207087 -0.06750229 -0.22996
0.0025849426 -0.0018384403 0.0111725405 0.120944194 0.1860703 -0.05100823 0.3578525 0.023190662
-0.27968416 -0.105481975 -0.15359405 -0.17623168 -0.28983727 -0.052625436 -0.17776686 0.008327869
0.45218349 -0.05927721 -0.25740832 -0.0065883207 0.22559096 0.10711848 -0.10856703 0.16100831
0.24108417 -0.2234876 0.10359778 0.18784925 -0.24771151 -0.14963633 -0.072996825 -0.22545454
-0.2410154 -0.0967531 -0.021787304 -0.29278037 0.23979579 -0.15829998 -0.37281084 -0.031278685
-0.119872116 0.063481346 0.10129071 -0.17199118 0.27828556 -0.21296778 0.25846982 0.12908319
0.38107222 -0.26705772 0.058603253 -0.16820002 -0.0453321 -0.0045183264 0.055398624 0.08571121
0.20137322 0.15460369 -0.08434935 -0.2167336 0.11454722 0.2988275 0.21507053 -0.11192817
-0.24766777 -0.38397887 0.21957412 -0.28487164 0.045629315 0.17050445 0.12627585 -0.05363602
-0.025289547 -0.20585603 -0.07624521 -0.05990202 0.17542878 0.5502626 -0.121207535 -0.094720036
-0.09242454 0.0022264211 -0.044050507 0.049937483 -0.24844842 -0.26817378 0.23573427 -0.19545782
0.040688775 0.28562617 0.30371696 0.12186326

decoder.4.bias f4 [9]
00000000: 94c3 7fbe 6d94 ad39 000b f0bb 0270 30be
00000010: 7b7d 26bd 0161 e23d 41b2 073e 1725 063f
00000020: e184 663e
-0.24976951 0.00033107717 -0.00732553 -0.17230228 -0.04064701 0.11053658 0.13251592 0.52400345
0.22511627
