weights/vae_model.pth (torch, 16208 bytes, 14 tensors)

encoder.0.weight f4 [20, 10]
000000 31 86 16 bd 14 08 d9 3d d6 72 81 3e 9f f3 5c 3e
       -0.03674907 0.10597244 0.25282925 0.21577309
000010 9d d9 54 3e c2 3d 40 3e 57 a8 fe 3e 94 92 bd bc
       0.20786138 0.18773559 0.49737808 -0.023141183
000020 15 f8 f6 3b 69 07 f4 3d 00 7b eb bd c0 88 80 3d
       0.007536898 0.11915476 -0.1149807 0.06276083
000030 46 27 63 3e 60 88 f8 bd 52 a5 81 be 6e d5 e5 be
       0.2218295 -0.121353865 -0.25321442 -0.44889396
000040 d2 f3 e1 3b 0b 40 0d bf 95 f4 3f be 6e de 83 bd
       0.0068955207 -0.55175847 -0.18745644 -0.064389095
000050 c5 b0 2d be 33 26 7e 3d 10 bf 60 3d 6a a0 96 bd
       -0.16961963 0.06204815 0.05486971 -0.07354815
000060 19 18 bf bd 0f 1b 8d be d8 c8 12 3e cf 70 72 bd
       -0.09330768 -0.27559707 0.14334428 -0.059189614
000070 3a 84 0d 3f 55 d4 0b 3f 71 2b d4 be 26 cb cd be
       0.55279887 0.5462087 -0.41439393 -0.40194052
000080 bf 60 c9 be 1f f3 7c be 5b 33 27 3e 35 1c 56 3e
       -0.39331624 -0.24702118 0.16328184 0.20909198
000090 37 08 05 3d ff 61 21 3e 94 fb 14 3b 74 8b 96 3d
       0.032478537 0.15760039 0.002273296 0.07350817
0000a0 20 cf b9 3e 99 b7 c9 3e ba 2c c6 3e 76 2a 6f 3e
       0.36290836 0.39397886 0.38706 0.23356041
0000b0 b1 e6 40 be 2e 88 69 be 21 5a aa bc 15 7b e4 bd
       -0.18838002 -0.22805855 -0.02079493 -0.111562885
0000c0 30 16 8a 3d 9f b6 14 be b2 10 b4 bb 6f 97 fc 3d
       0.06742513 -0.1452279 -0.0054951543 0.12333571
0000d0 7f 38 a2 3e 5d 2c ee 3d 91 d7 43 3e e3 e0 27 3e
       0.31683728 0.116295554 0.19125201 0.16394381
0000e0 48 4b 14 be ff 19 6d 3e 5a 9e 8a be 7e 8b 21 bb
       -0.14481843 0.23154448 -0.27073938 -0.0024649794
0000f0 d3 7e 91 3f e0 15 d5 3d 9e 28 91 be 38 b4 8a be
       1.1366829 0.10404563 -0.283513 -0.2709062
000100 95 f9 90 3d f4 05 6f bc c8 10 0a be cb ea ca bd
       0.07078854 -0.014588822 -0.13482964 -0.099080645
000110 30 5c c8 bd f4 89 9c 3e 50 72 0a bf 4a a7 93 3e
       -0.09783208 0.30574 -0.5408068 0.2883857
000120 4d b8 8d 3e 0e 28 e2 bd dd 88 70 3d 2f 8f 56 3e
       0.27679673 -0.11042796 0.058724273 0.20953058
000130 15 e5 df bd da ea a1 bd 6c 1f d0 bc b8 43 f2 3d
       -0.10932366 -0.079061225 -0.025405608 0.118293226
000140 08 21 76 3e f0 ac 68 3e cb 1c 3a bd 31 02 25 be
       0.24036038 0.2272222 -0.045437615 -0.16114117
000150 40 bf ec be f9 19 a4 3d 03 d4 13 3e b0 17 9e 3e
       -0.46239662 0.080127664 0.14436345 0.30877447
000160 b4 16 a8 bd 6b 3b c3 bd 73 29 3d 3d 3f d7 08 3f
       -0.08207455 -0.095328175 0.046182107 0.5345344
000170 27 08 e3 3d 9b 43 a8 3d 68 92 3f 3e 7b c0 ac 3d
       0.11085539 0.0821602 0.18708193 0.0843515
000180 ef 7f f7 3e 51 20 a8 3c 9a b8 57 3e d0 98 4e 3c
       0.48339793 0.020523222 0.21066514 0.0126096755
000190 d3 c3 eb 3d eb b6 85 bd c0 62 6c be 3b bb 07 3e
       0.1151196 -0.065290295 -0.23084545 0.13255017
0001a0 fb da 8c 3e b2 d3 f0 3e 1e 24 68 bc f1 33 0b 3f
       0.2751082 0.4703651 -0.014168767 0.5437613
0001b0 97 1d 30 3e f3 0f 9d 3d af 2d c6 3d c9 2b 5a 3d
       0.17198788 0.07669058 0.09676682 0.053264413
0001c0 36 fb 6c 3e 63 60 8b 3e b8 07 c3 bd 7c 42 1f be
       0.23142704 0.27221975 -0.095229566 -0.15552706
0001d0 2d 98 c3 be 07 9d f1 bd b4 be fc 3d 72 35 d4 3e
       -0.38202038 -0.11797529 0.12341061 0.41447026
0001e0 cd 15 2f 3e e5 74 0b be 70 07 9e bc f9 7d 05 3e
       0.1709816 -0.1361881 -0.019290656 0.13036336
0001f0 84 80 84 3d 37 4a 83 3e aa 38 c7 bd b2 2c 95 3d
       0.06469825 0.2564256 -0.09727605 0.072839156
000200 70 3d 1e bf 70 68 e1 be 7d 82 50 be 62 dd 2c be
       -0.61812496 -0.44024992 -0.20362277 -0.16881326
000210 7d 18 8c 3e 83 03 1b bf a4 9f c5 3e 36 7f 76 bd
       0.27362433 -0.60552233 0.3859836 -0.06017991
000220 5c 0c e7 3e ff 02 55 be 57 e8 6c bd 3d bc ac bc
       0.45126617 -0.20801924 -0.057838764 -0.021085853
000230 7a 95 82 3e 49 71 a4 3e e4 0b e6 be 8c b2 d2 3e
       0.25504667 0.3211768 -0.44930947 0.41151845
000240 77 20 b7 bd 10 26 43 be fa c5 7f 3e 4f 2c a4 bd
       -0.08941739 -0.19057488 0.24977866 -0.08016264
000250 03 90 f3 bd 17 48 14 bd cd 0d 61 3e 07 73 ee bd
       -0.118927024 -0.036201563 0.21977921 -0.116430335
000260 a4 6f 9b 3d 29 b2 8f be 59 8f 00 bf df 6e 8b 3e
       0.07589653 -0.28065613 -0.5021873 0.27233025
000270 3e 03 d7 3d 01 02 80 3e 46 5e aa 3d b1 91 43 3e
       0.10498665 0.2500153 0.083187625 0.19098546
000280 b0 d1 34 be e8 3a 06 be 23 60 63 be bb 37 1f be
       -0.17658114 -0.13108408 -0.22204642 -0.15548603
000290 bb 0b a9 bd bf 21 1c 3e 71 a8 eb 3e bf e4 92 3e
       -0.082541905 0.15247248 0.46026948 0.28690144
0002a0 01 77 a1 be e2 58 7b be 14 eb 87 3e f7 25 ee bc
       -0.31536105 -0.24545625 0.26546538 -0.029070837
0002b0 16 da 47 be 98 8f 29 3f 5b 33 cd be 34 dc 01 3e
       -0.19516787 0.6623473 -0.40078244 0.12681657
0002c0 b6 88 9d be a3 c2 4d 3d 67 18 56 3e 28 db 35 be
       -0.30768365 0.05023445 0.20907746 -0.17759383
0002d0 50 6c 08 3d 5d 10 47 be 76 7a c2 be 09 23 0f be
       0.03330642 -0.19439836 -0.37984055 -0.13978209
0002e0 89 77 30 be df d5 71 be fb c7 39 3e aa 19 a2 be
       -0.17233099 -0.23616742 0.18142693 -0.31660205
0002f0 f9 af b4 3e 79 6b c5 bc 9f c1 3f 3c 93 07 11 be
       0.35290506 -0.024099099 0.011703878 -0.14163046
000300 a3 d9 86 be 59 da c5 bd ad 4f 5b be e3 9a 5c be
       -0.2633792 -0.09660787 -0.21417113 -0.2154346
000310 27 51 f9 be b4 3f 30 bc 51 13 a6 bd 17 0d d4 bd
       -0.48694727 -0.0107573755 -0.08109153 -0.10354059

encoder.0.bias f4 [20]
000000 78 36 cf 3d 4c 06 bf bd ea d5 58 3e 06 d8 86 3e
       0.10117811 -0.09327373 0.21175352 0.26336688
000010 33 2d 82 be d8 2e 1a 3e 46 5a 85 3e 30 94 54 be
       -0.2542511 0.15056932 0.26045436 -0.20759654
000020 38 f6 33 3f 2d 75 48 3e 29 b9 bf 3d 75 91 49 be
       0.70297575 0.19575949 0.09361488 -0.19684394
000030 c9 37 49 be ce 9e b3 3e 6a f5 8b 3f 01 9a 59 3f
       -0.19650187 0.35082096 1.093427 0.85000616
000040 1a 6e 68 3e 7e 69 a0 be 55 2a 42 be 04 dc cb bd
       0.2269825 -0.31330484 -0.18961461 -0.09954074

encoder.2.weight f4 [40, 20]
000000 26 b5 2b 3e 0a b0 8d 3e e3 23 c2 3d 03 a9 15 3e
       0.16768321 0.2767337 0.09479501 0.14615254
000010 9c 53 60 3e 91 11 4e be 81 2a 42 3d 5b 7b 1d bc
       0.21906894 -0.20123889 0.047403816 -0.00961193
000020 88 5b 40 3d bb 77 60 3e f0 da 15 bd e1 c9 56 be
       0.04696229 0.21920674 -0.03658575 -0.20975448
000030 39 dd 83 be 0b d1 bf 3e 31 ac 15 3c 7e 74 07 3f
       -0.25754717 0.37464175 0.009135292 0.5291213
000040 16 1a b8 3e ae b4 80 be ad 96 88 ba 39 4e 06 be
       0.35957402 -0.25137848 -0.0010420881 -0.13115777
000050 2c b0 12 3e 8e 74 a0 3e 58 b8 46 bc 9b 93 8c bd
       0.14325017 0.31338924 -0.012128912 -0.06864091
000060 d3 64 d4 3e 60 08 b4 3e 03 fc 9f 3e af 1c c4 bd
       0.41483173 0.3516264 0.31246957 -0.095757835
000070 9c 41 83 3a b4 76 5f be 47 a6 95 bd 90 1e 68 3e
       0.001001406 -0.21822625 -0.073071055 0.22667909
000080 12 0f ed 3d 3b 9c c9 bd f0 18 f0 bd 53 9e 7a 3e
       0.1157514 -0.09844252 -0.117235065 0.24474458
000090 06 3e 01 3d a8 5f c0 3e 07 63 16 be 71 d5 be 3d
       0.03155329 0.3757298 -0.14686213 0.093180545
0000a0 43 33 79 3d d4 69 aa 3d b1 fd 91 3e bd 53 e6 3e
       0.060839903 0.08320966 0.28513864 0.44985762
0000b0 e3 68 3c be 1b f9 aa 3d 91 0d 44 be 6f a5 87 3d
       -0.18399386 0.08348294 -0.191458 0.06623351
0000c0 0a 3c 7e be 46 da a6 3d 75 91 44 3e 07 ef 3e 3e
       -0.2482759 0.08147101 0.19196112 0.18645869
0000d0 93 c1 c4 be ca 78 52 3e 1d 86 b6 3e c5 29 e7 3d
       -0.38428935 0.2055389 0.35649195 0.11287264
0000e0 3a fa 91 be 2e 56 94 3e 73 db 68 3e ab 16 3e 3e
       -0.2851122 0.28972 0.22739963 0.18563335
0000f0 af c4 cb bc a6 fa 87 3d 85 4c 34 3c df 84 99 3e
       -0.02487406 0.06639604 0.011004572 0.29984185
000100 0d 67 03 bc 76 bf 16 be 1a 56 39 be 48 48 a9 3e
       -0.008020175 -0.14721474 -0.18099251 0.3306296
000110 11 2f 63 bd 48 36 ee 3d 96 f2 a3 3e cd be 5b 3e
       -0.055464808 0.11631447 0.32021016 0.21459503
000120 d7 b8 14 3e b5 57 38 bd f8 ad b5 3e ab 18 dc bd
       0.14523636 -0.04500552 0.3548429 -0.107468925
000130 5a 62 31 be 6f 51 81 3e c0 86 96 3e 83 73 60 be
       -0.17322674 0.2525744 0.2939968 -0.21919064
000140 1c 49 31 bd e6 0c 7d 3e bd 66 14 bd 7c 38 b3 3e
       -0.043282613 0.24711952 -0.03623079 0.35004032
000150 4a 14 23 be b3 0c 4f be 1e 47 26 bd 45 9d 4b 3e
       -0.15925708 -0.20219688 -0.040595166 0.19884212
000160 c9 e5 a7 3e 34 c5 30 3e c4 16 f6 bd 3b 78 d5 3d
       0.327925 0.17262727 -0.12016061 0.10423323
000170 d5 b3 b3 3d 27 44 16 be 27 fd ee 3e 72 60 62 3e
       0.087745346 -0.14674436 0.46677515 0.22107103
000180 82 1c 4a 3e e2 89 3b 3e 84 72 2e 3e 78 b9 e8 3d
       0.19737437 0.18314317 0.17035872 0.113635
000190 64 60 51 3e e2 e4 b8 bd f6 06 b8 bd 15 06 7b bd
       0.20446926 -0.09028031 -0.08985703 -0.061285097
0001a0 5c 47 a9 bc 27 2f c2 3d cf 38 da 3e f1 dc 94 3d
       -0.02066391 0.0948165 0.42621467 0.07268704
0001b0 c1 4d 6e 3e ac 25 07 3e 34 4b a1 3e 3c 2d e8 be
       0.23271848 0.13197964 0.31502688 -0.4534701
0001c0 3b cc 97 3c 07 3b cb 3b c4 3b 92 3e 6d 1b 0c bd
       0.018530002 0.006202105 0.28561223 -0.034205843
0001d0 dd 85 e2 3e 82 bd 1e 3e 51 44 17 3e 4e 3c 16 bd
       0.44242755 0.15501979 0.14772154 -0.036678605
0001e0 d1 ca 4f 3e b5 52 90 3d 46 b0 51 3e 91 ef 61 3e
       0.20292212 0.07047025 0.20477399 0.22064044
0001f0 e5 b2 76 bd cb 6c 45 be 70 b9 61 3e c8 2d ce bd
       -0.0602292 -0.19279782 0.22043395 -0.10067326
000200 78 57 42 3e dc e9 af 3c 24 b4 22 3c 91 90 37 3e
       0.18978679 0.021473818 0.009930644 0.17926241
000210 22 d5 b4 be e8 b8 a2 3d 58 55 a6 bd 9a d5 db 3e
       -0.35318857 0.07945424 -0.08121747 0.42936403
000220 b6 7d e4 3d b5 13 9a be d2 d2 2c 3e d1 f1 2d bb
       0.1115679 -0.3009316 0.16877297 -0.002654184
000230 4e c1 35 3e cd db 73 bc 43 2d e5 bc 81 7f 37 bc
       0.17749521 -0.014883948 -0.027975684 -0.011199833
000240 f1 45 d9 bc 1f 74 0a 3e d3 87 18 3e 86 e9 5f 3e
       -0.026522608 0.13520859 0.14895563 0.21866426
000250 34 e3 67 be c8 24 54 3d 34 8e b8 3c ca b7 a5 bd
       -0.22645265 0.05179289 0.022528745 -0.080916956
000260 2d b9 1d be 90 cd 9c bd 40 42 b6 3e 75 a8 7a bd
       -0.1540267 -0.076563954 0.3559742 -0.06119581
000270 d7 38 96 3d 25 30 36 3e 12 e0 ce 3d 67 c8 0f 3d
       0.0733506 0.17791803 0.10101332 0.035103228
000280 45 a8 09 3e 72 40 7e bd 19 a3 94 3e 52 97 a3 bd
       0.13443096 -0.06207318 0.29030684 -0.079878464
000290 a4 c9 49 3d 15 7a 6a 3d 9e a2 31 3e af 78 83 3e
       0.049264565 0.057245333 0.1734719 0.25678012
0002a0 aa 87 96 3e bb e7 4b 3e a6 3c b3 3d e9 0c c5 3e
       0.29400378 0.19912617 0.08751802 0.38486412
0002b0 ed 96 19 be 1e 53 de bd c0 a8 a8 3e 85 95 08 3e
       -0.1499898 -0.10855697 0.32941246 0.13338287
0002c0 84 3a 6a 3d aa ad a3 3e c8 7b b6 3d 5d b2 9b bc
       0.05718471 0.31968433 0.08910328 -0.019005949
0002d0 9c dc 14 be a4 9e 82 be 33 4b 0c be 6f e1 91 bb
       -0.14537281 -0.25511658 -0.13700561 -0.0044519226
0002e0 4c ca 23 3d 03 00 bc 3e d9 26 ce 3e 5c 14 d6 3d
       0.039987847 0.3671876 0.40264013 0.10453102
0002f0 55 0f 15 3f ad c8 60 be a9 6c 1a 3f c1 d8 74 3d
       0.5822652 -0.21951552 0.6032205 0.059777025
000300 90 42 4a 3e ea f0 b6 3d a1 8d a7 be 40 3f ee 3e
       0.19751954 0.089326695 -0.32725242 0.4653263
000310 41 54 34 3e d8 d5 a1 3e e3 a2 08 be 74 83 91 3e
       0.17610265 0.31608462 -0.13343386 0.28420603
000320 c4 d9 96 be f2 05 d9 3e 38 ae d2 bd c4 c3 0e 3e
       -0.29463017 0.42387348 -0.10287136 0.13941866
000330 13 40 d3 3d ca 37 13 bf 7d 21 1f 3e d8 2a ac be
       0.103149556 -0.57507 0.15540119 -0.33626437
000340 5b cc 60 3e b3 74 82 3d 1f c4 55 3e 86 f2 e4 bc
       0.21952955 0.06369915 0.20875596 -0.027947675
000350 29 e1 09 3e 84 9a 97 bd c2 1f d2 3e 94 ae cc 39
       0.13464798 -0.074025184 0.41039854 0.00039039983
000360 6a cf 54 3e d6 63 be 3d 2a cd 69 3e e9 cb a2 3e
       0.20782247 0.09296386 0.2283217 0.31796196
000370 05 38 33 be bb a9 13 be 63 ce 01 be c6 ac e3 bd
       -0.17501839 -0.14420216 -0.12676387 -0.11116938
000380 4e 6b e3 bd 5b 6e f0 bd 87 21 05 be 25 e9 12 3e
       -0.11104451 -0.11739799 -0.13001071 0.1434675
000390 5a 4d 8c bd 75 54 2e 3e 2a eb 20 be 5f 56 3f 3e
       -0.06850691 0.17024405 -0.15714708 0.18685292
0003a0 3b 6b 59 be b6 c0 34 bd b3 19 65 3d bb 28 5a be
       -0.21232311 -0.044129096 0.05593271 -0.213046
0003b0 d3 b7 3b be 27 38 37 bd 7f 7f 5a 3b 28 82 32 be
       -0.18331842 -0.044731285 0.0033340154 -0.17432463
0003c0 fc 4f 60 3e ae 4c f8 3e bc 10 c7 bd a0 f9 38 be
       0.21905512 0.48496002 -0.09719989 -0.18063974
0003d0 1e ee 79 3e f8 b9 2a 3e e4 50 c3 bd 2e 45 1c 3e
       0.24407241 0.16672504 -0.09536913 0.15260765
0003e0 aa d8 22 3f c6 ea 87 3c cf ef 20 be ca b5 fc bd
       0.63611853 0.01659144 -0.1571648 -0.12339361
0003f0 e2 66 4f 3e fa 1c 1b 3e 67 b4 3c bd 1b 7d 5b 3e
       0.2025409 0.15147772 -0.046070483 0.21434443

encoder.2.bias f4 [40]
000000 7e 78 d9 3c 44 63 95 3e 86 ae b8 3d 3c ce c5 3d
       0.026546713 0.29177296 0.09017663 0.09658477
000010 f3 f8 a2 3d 5e 10 6e 3e 5f 98 2c bd e1 a2 09 3e
       0.079576395 0.23248431 -0.0421375 0.1344104
000020 ca 98 54 3e fa 0b 52 3e 2a 4a bf be 8c ca 3e bc
       0.2076141 0.20512381 -0.3736127 -0.011644971
000030 52 e9 7f 3e d6 7f 3b 3d 1c 9e b5 3d 22 86 a7 3e
       0.24991348 0.04577621 0.088680476 0.32719523
000040 a3 ff 0c 3e e2 e1 a8 3e a5 72 c2 3e 12 41 cc 3d
       0.13769393 0.32984835 0.37978092 0.09973349
000050 4c f4 13 3d 6c 9e 29 3e 8d 47 90 3e 23 f3 82 3e
       0.03612165 0.1656434 0.2817959 0.25576124
000060 e1 e6 f8 3d 67 0d 5a be 57 96 2a 3e ad 31 67 3d
       0.12153412 -0.21294175 0.16658913 0.05644386
000070 7c 3c 80 bd af 6c 0d bd 92 43 36 3e a2 6f 22 be
       -0.062615365 -0.034527477 0.17799214 -0.15862897
000080 a7 40 0e 3d 18 a5 04 be 48 50 12 3e d5 3d 00 3e
       0.034729626 -0.12953603 0.14288437 0.12523587
000090 ce af 4f 3e c6 ab 68 be 20 a0 9b 3c 2f 3f f1 3e
       0.20281908 -0.22721776 0.018997252 0.47118518

decoder.0.weight f4 [40, 6]
000000 2e cd a8 3e 54 cf c8 3d ee 10 9a 3e 81 a0 a3 3e
       0.3296904 0.0980517 0.3009104 0.31958392
000010 34 67 0f 3d 5a 2f 35 3d 2f ca 97 3c 5a 23 5f be
       0.03501053 0.04423461 0.018529026 -0.2179083
000020 4b ac b1 3e 3c 1f 93 be fc 00 96 be ad 52 d4 3e
       0.34701762 -0.28734767 -0.29297626 0.41469327
000030 84 0c 91 be 85 55 d2 3e 28 08 d4 bd be 90 03 bf
       -0.2832986 0.4108087 -0.10353118 -0.51392734
000040 46 7b 62 be b8 2b 9d 3e 0d 6f b9 3e 28 7c 3d 3e
       -0.22117338 0.30697417 0.36217538 0.18504393
000050 ba 57 12 3e ee 9b 1f bb 33 f0 17 bd 42 03 9a be
       0.14291278 -0.0024354416 -0.037094306 -0.3008061
000060 c3 1b aa bd 9b ad 84 3d 26 82 d5 3e c0 88 16 bd
       -0.083060764 0.06478425 0.41700858 -0.03675151
000070 87 d0 cc 3c 50 f2 22 3d 8a ac 5a be c4 78 09 3f
       0.025001777 0.03978187 -0.21354881 0.536999
000080 26 d4 ac be ae ec 61 3e 2e a6 1b be 81 5b 08 bf
       -0.33755606 0.22062942 -0.15200111 -0.53264624
000090 b2 83 6e 3d 8a 0e 93 3d a6 f7 a9 3e 32 9b 06 3d
       0.058231063 0.071805075 0.33196753 0.03286285
0000a0 7a 8f 17 3c 25 48 09 3d 6f 2e 09 3e 81 29 8b 3b
       0.009250516 0.033516068 0.1339662 0.004246891
0000b0 e5 fb 98 3e 44 ac 8b 3d 4c 68 a4 be 4d 07 93 bd
       0.2987968 0.068199664 -0.32110822 -0.07179127
0000c0 8a 15 58 3e 47 62 bc bc 94 82 94 3d 94 10 13 3e
       0.21101967 -0.022996081 0.07251468 0.14361793
0000d0 1d cb d5 bd 0b c0 50 bb f7 d2 8d 3e 16 bc ad 3d
       -0.104391314 -0.0031852748 0.27700016 0.0848314
0000e0 bd de 8a 3e 73 55 1e 3e a1 0a 9f 3d c6 5f 8d 3e
       0.2712306 0.15462284 0.07765699 0.27612132
0000f0 c5 f7 08 bf 1f fb 96 be 7f 31 db 3d 4d 83 d4 3d
       -0.53503066 -0.29488465 0.107028 0.10376606
000100 87 8f ca be ce 6a 93 bd 68 30 af bb 9d 0a 9c be
       -0.39562628 -0.07198106 -0.0053463466 -0.30476847
000110 17 a9 f9 be 24 1e c1 be 51 a3 a3 be 94 ef 15 3e
       -0.48761818 -0.37718308 -0.31960538 0.14642173
000120 51 3e 19 bf 77 87 84 be 3d 2c 19 be 43 db bf bc
       -0.5986071 -0.258846 -0.14958282 -0.023419982
000130 b6 53 8c 3e 0a 81 d6 3e 80 53 37 bd 18 b3 f1 bd
       0.27407616 0.41895324 -0.044757366 -0.118017375
000140 c9 17 91 3e 54 52 5c 3e 21 80 b6 be ee ab d1 bd
       0.2833846 0.2151578 -0.3564463 -0.10237871
000150 5c b9 c5 3e 1e 8c e2 3a 16 ce 46 3d 87 84 e7 bd
       0.3861798 0.001728419 0.048536383 -0.113045745
000160 d7 ac a0 be cc 78 63 3a 08 00 65 bd 44 66 27 bf
       -0.31381866 0.0008677363 -0.055908233 -0.6539042
000170 5f 6e 90 3e 5a eb f3 bd 6a 64 46 be 7c d3 ca be
       0.28209206 -0.11910124 -0.19374242 -0.39614475
000180 db f7 dc be bf 0f 6b bc 3f 39 08 be d9 8a 93 bd
       -0.4315785 -0.014347016 -0.13303088 -0.072042175
000190 57 39 a5 bd 82 3f 04 bd b0 e6 f9 3e ba a2 34 bd
       -0.08067577 -0.03228713 0.48808813 -0.0441005
0001a0 2c 91 13 3d 6c 5d f4 3d 29 68 3d 3e 7b 18 40 3e
       0.03602712 0.11931881 0.18496765 0.18759339
0001b0 c0 7d fb 3e a5 49 4f 3e c4 0c aa bd 1f 23 97 be
       0.49119377 0.20242937 -0.08303216 -0.29518983
0001c0 06 88 5f be bb dc 18 3e dd 94 8b 3e b2 f1 9d ba
       -0.21829233 0.14927952 0.2726201 -0.001205018
0001d0 c3 08 5b 3e 50 1f 02 3c da 77 97 3d a0 a6 fb bd
       0.21390061 0.007942036 0.07395907 -0.122876406
0001e0 b4 8d 0c 3e a4 83 32 3e 77 e3 5e 3e 0d 91 fa bc
       0.1372593 0.1743303 0.21766458 -0.030586744
0001f0 23 dd 62 bc 3f 57 67 be e3 6a 4b bc 7c 86 3e 3e
       -0.013846668 -0.22591875 -0.0124156205 0.18605989
000200 b5 3a 95 be 5b d0 6a 3e 11 1a 85 3e 5a 50 b1 be
       -0.29146352 0.22931044 0.2599645 -0.34631616
000210 f8 70 2c 3c fe f0 97 bd f4 4f 10 3e 6a 54 0d 3f
       0.010524981 -0.074190125 0.14093 0.5520693
000220 bb cc e6 bc 09 59 83 be 06 e8 0e 3e c9 7e 95 3d
       -0.028173795 -0.25653866 0.13955697 0.07299573
000230 ad b1 18 be 53 7b 43 3c ec 51 74 be 0d 8a bc 3d
       -0.14911528 0.011931258 -0.23859376 0.092060186
000240 f9 18 e3 be 13 69 c0 be d3 5c d2 bd d8 cb 24 3f
       -0.4435499 -0.37580165 -0.10271611 0.6437354
000250 b9 09 a9 3e 8c 6f 1c be bc 9d 58 3e 5e df cb be
       0.3301523 -0.15276927 0.21153921 -0.39818853
000260 3d 57 f4 3c 87 c9 a5 bc cc a4 1a 3e db fc 0f 3f
       0.029826755 -0.020237697 0.15101928 0.562452
000270 c1 79 95 3e a3 9a 6d 3d 71 1f 2d be 38 ce 9f 3d
       0.29194453 0.0580088 -0.16906525 0.07803005
000280 60 69 47 be 8e a4 1f 3e 24 ec b8 bc 55 c9 c2 3e
       -0.19473791 0.15590116 -0.022573538 0.3804423
000290 9c 45 f2 bd 40 e1 6a 3e 98 d4 3f 3f fd fa 8b 3e
       -0.11829683 0.22937489 0.7493377 0.27339926
0002a0 d8 07 a7 3e 02 5e b3 bd 82 7d fa be 0b f9 6f 3e
       0.32623172 -0.08758165 -0.4892388 0.23434846
0002b0 8d 6a c0 ba ff e8 a5 3d 3d 52 e3 3e 46 12 59 be
       -0.0014680192 0.08101081 0.4439868 -0.21198377
0002c0 6b e1 21 3e 5d f0 23 be ef e4 c1 3c 98 7c 37 3e
       0.15808646 -0.1600966 0.023668734 0.17918622
0002d0 b4 36 27 3e 50 1d f6 bc 0d d9 41 be 2a 1a 09 bf
       0.16329461 -0.030043274 -0.18930455 -0.5355555
0002e0 e2 c5 0f bf b6 36 17 3e 16 21 06 3f 69 a9 e9 be
       -0.5616132 0.14766964 0.52394235 -0.45637062
0002f0 c9 8b 86 3d 55 d6 78 3e 96 71 c1 3d 96 79 9b be
       0.06569631 0.24300511 0.09445493 -0.303662
000300 a6 1c b7 3e 45 4c dd 3c 7a 1e 8f 3d b0 ec 0c 3f
       0.35764045 0.027013907 0.06988235 0.55048656
000310 39 3e b7 bd a6 d5 84 3e 0b dc ec 3d 8b 1e d1 be
       -0.08947415 0.2594425 0.11565407 -0.40843615
000320 38 5f b2 bd 81 df 2f 3e 46 16 53 be a0 d4 12 3e
       -0.08709568 0.17175104 -0.20613965 0.14338923
000330 4b ab 4d 3e f1 c1 44 be 42 a4 a1 3e d7 8b f9 3e
       0.20084874 -0.19214608 0.3157063 0.48739502
000340 ef cd 75 be 0c 90 86 38 5a b3 98 3e 73 d6 49 3e
       -0.24004339 6.416449e-05 0.29824334 0.19710712
000350 64 df 00 3e ae 86 b5 be 49 2e 19 3d cf 9d 8f bd
       0.12585217 -0.35454315 0.037397657 -0.070125215
000360 ce dc 57 be f6 40 05 bf 2d 27 a8 be 5f c2 2f be
       -0.21080324 -0.5205225 -0.3284239 -0.1716399
000370 cc 0b 91 3e 2c 44 88 3d c8 08 9c be 41 db 20 bf
       0.28329313 0.06653628 -0.3047545 -0.62834555
000380 6d cb fa be c3 e1 36 bb 23 3a 19 be f1 73 e8 be
       -0.48983327 -0.002790556 -0.14963584 -0.45400956
000390 49 75 90 be 97 9a 87 3d cd 31 04 3f 4c e4 41 be
       -0.2821448 0.066212825 0.5163849 -0.18934745
0003a0 45 66 cd be 02 10 fd bd 06 24 a6 be f0 33 ac 3e
       -0.40117088 -0.12356569 -0.3244936 0.33633375
0003b0 34 b2 9f be b7 00 9b be d9 fb 72 3f 94 3a 15 3e
       -0.31190646 -0.30273983 0.9491554 0.14573127

decoder.0.bias f4 [40]
000000 f2 a6 a0 be 32 d8 32 3f e5 43 f4 3d 96 f9 22 3e
       -0.3137737 0.6986114 0.11927012 0.15915522
000010 62 61 31 3f f9 5b 5e 3e 0e fc 38 3c 22 00 09 3e
       0.6928922 0.21714772 0.011290563 0.13378957
000020 f8 61 c3 be 27 d1 34 3d 05 4c c8 3e 21 b2 2c be
       -0.38160682 0.044144776 0.39120498 -0.16864826
000030 e6 84 82 be ac 0e 93 3d 90 c7 a8 3d 71 e0 76 be
       -0.25492018 0.07180533 0.082411885 -0.24109055
000040 c9 06 56 3e 72 99 5d be 42 6f a9 bd d6 19 22 3c
       0.20901026 -0.21640566 -0.08273174 0.009893855
000050 fa 18 35 3f 79 a7 18 bf d6 73 a4 bf d9 13 12 3f
       0.70741236 -0.59630543 -1.284785 0.57061535
000060 46 ea ef 3d ef 15 82 be f3 fc eb 3d dc 92 91 bd
       0.11714606 -0.2540736 0.115228556 -0.07108089
000070 99 18 46 bf 71 61 94 3e ab c8 cb 3e 48 f3 00 3f
       -0.77381283 0.28980592 0.39801535 0.5037122
000080 6d f5 bd 3c d1 91 82 bc 1d 2d 0c 3e 65 ff 4b 3e
       0.023188317 -0.015938671 0.13689084 0.19921644
000090 0b 87 00 3f f4 aa 93 3e 4f 67 e1 be fc bd 0e 3f
       0.5020606 0.28841364 -0.4402413 0.55758643

decoder.2.weight f4 [20, 40]
000000 65 79 df bd c5 86 16 be cb 1a c0 bd b1 6b 0c bd
       -0.10911826 -0.14699848 -0.0938011 -0.03428239
000010 5b 38 e4 bd 41 75 18 bd 57 97 fe 3d 4e 36 0e 3d
       -0.111435615 -0.037221197 0.124312095 0.034719758
000020 72 1c 82 bd 45 66 39 3d 29 76 76 bc 40 ad 37 bd
       -0.06353082 0.045263547 -0.01504282 -0.04484296
000030 37 0c 3e bd d4 a1 b1 bc 77 83 f6 bd bd b4 1c 3d
       -0.046398368 -0.021683611 -0.12036794 0.038258303
000040 0b b5 03 be 0c dc 04 be ca 40 25 bd ec b7 af 3d
       -0.12862031 -0.12974566 -0.04034499 0.08580002
000050 4f 78 c2 3d 8c 45 16 be 04 65 f7 3d 95 a7 01 be
       0.09495603 -0.14674968 0.12079814 -0.12661584
000060 59 37 09 be c5 5a b6 bd ca 48 1a be 97 c9 ad bd
       -0.1340002 -0.08904032 -0.1506683 -0.08485716
000070 01 1e d6 bd cf 08 dd bd 23 2b 1e 3e 3c c0 e3 bd
       -0.104549415 -0.10792696 0.15446143 -0.1112065
000080 f9 bf a3 bb ef 76 c5 3d ab 0f 13 be 36 24 f6 bc
       -0.00499725 0.096418254 -0.14361446 -0.030046564
000090 6d 96 04 3d b3 37 12 3e bd 05 35 bd 69 c0 a8 3d
       0.03237002 0.1427906 -0.044194926 0.08239824
0000a0 68 73 39 be 80 e5 02 be 15 57 e2 bc 5f 0d e6 3d
       -0.1811043 -0.1278286 -0.027629415 0.11233019
0000b0 24 46 5a bd 0d 83 26 bb 38 24 09 3c 68 6a bc bd
       -0.053289548 -0.0025407702 0.008370452 -0.09199983
0000c0 47 1c 15 be 6d 60 96 bb 26 2f a5 3d 5e bb 18 bd
       -0.14561568 -0.0045891316 0.080656335 -0.037288062
0000d0 1a 33 1d 3d 81 b2 52 3d 98 6d 24 bd ee 45 85 3d
       0.038378812 0.051439766 -0.04014358 0.06507479
0000e0 40 fb a0 3d 4d e2 b3 3d ba 27 9e bd 19 2e b3 bd
       0.07860422 0.08783398 -0.07722421 -0.08749027
0000f0 0c e6 58 bd 2f bb ef bc 43 c1 38 3d 08 87 42 bd
       -0.052953765 -0.02926406 0.045106184 -0.047492057
000100 6a 3c b2 bd 7c 49 4a 3d f6 fd c5 bb fb 29 f1 3c
       -0.08702929 0.049386486 -0.0060422374 0.029438963
000110 c8 4f 3a be a3 c2 03 be 33 4c dd bc 2c ef 10 be
       -0.18194497 -0.12867217 -0.027013874 -0.14153737
000120 27 4f 61 3d 23 3b 8a 3d 39 ff da 3c b6 0f dc bd
       0.055007126 0.06749561 0.026733028 -0.10745184
000130 bf 2b 2e be 44 c4 4e 3d 2b 0a f3 bd 65 70 08 be
       -0.17008875 0.050480142 -0.11867174 -0.13324125
000140 59 2c 72 bd f7 92 c0 3e b2 b9 a4 3e b3 fc 7e bd
       -0.059124324 0.37612125 0.32172924 -0.06225271
000150 10 51 12 3e c1 ae c2 3d 85 bf d7 bc cc 91 9d 3d
       0.14288735 0.09505988 -0.02633644 0.07693824
000160 3e ee bf bd a8 08 c9 3d 40 e5 e4 be 96 d0 8b 3e
       -0.09371613 0.09816104 -0.44706154 0.27307576
000170 c0 8e 28 3f 07 c5 9a be 2f 12 de bd 9e d5 31 3e
       0.6584282 -0.30228445 -0.10843312 0.17366645
000180 1d b2 89 bd 9f 4e 8d 3d 8d e3 96 bb d5 51 a1 3c
       -0.067234255 0.068997614 -0.004604763 0.01969234
000190 49 ec aa 3c cb 10 c8 bd 0f e5 af 3e 7a 09 f5 3c
       0.020864623 -0.09768828 0.34354445 0.029911745
0001a0 76 e4 06 be a6 f3 8b bc 7c f0 02 3d 61 eb 61 3e
       -0.13173088 -0.017083954 0.031967625 0.22062446
0001b0 fb 41 9e 3e 19 05 16 3e 1d 6c 3e 3c c8 64 5d be
       0.30909714 0.14650382 0.011622456 -0.21620476
0001c0 80 47 89 3c 48 a1 78 be d7 a6 ff bc d6 98 be 3d
       0.016757727 -0.24280274 -0.031207485 0.09306495
0001d0 43 2a e2 be f3 ef 0d 3f 3e cd 8a 3e fa e9 f3 be
       -0.44172868 0.5544426 0.27109712 -0.47639447
0001e0 a3 0e 10 be 9d e1 08 3d 30 11 2c 3c 78 25 8c bd
       -0.14068083 0.033418287 0.010502145 -0.06843084
0001f0 20 21 5b 3d d0 84 65 3d 03 99 8b bd 7d 8f 5c be
       0.053498387 0.056034863 -0.06816294 -0.21539111
000200 b6 b7 90 bd f0 55 b0 3c 9d 10 06 be 30 47 21 be
       -0.0706629 0.021525353 -0.13092275 -0.15749812
000210 8d 64 1f 3d ee ed d7 bd ba 52 22 be 78 77 87 3d
       0.038914252 -0.10543428 -0.1585187 0.06614584
000220 42 b9 e5 bd 95 76 27 bb 41 89 ab 3d fe 56 df bd
       -0.11216976 -0.0025552858 0.083757885 -0.10905264
000230 06 3d bd bd eb 89 76 bd 58 7f 3f 3b e8 33 c4 bd
       -0.09240155 -0.060190123 0.002922019 -0.09580213
000240 76 5c c7 bd 6b b0 24 bd be 35 ed 3d a2 d0 b9 3b
       -0.097344324 -0.040207308 0.11582516 0.005670623
000250 2d 73 83 bd f0 58 3a bd 0b a1 ed ba f4 a1 dd bd
       -0.064184524 -0.045494974 -0.001812966 -0.10821906
000260 28 cb a0 3d 03 f6 df bd f5 d4 b1 bd 62 84 e3 3c
       0.07851249 -0.10935595 -0.086831965 0.027773086
000270 54 79 20 3d 76 3f 9f bd 78 81 04 bd f4 27 df 3d
       0.039178208 -0.07775776 -0.032350034 0.10896292
000280 1d ea d9 bc 17 8b 06 be 31 85 63 bc f3 fd 0d 3e
       -0.026600892 -0.13138996 -0.013886736 0.13866405
000290 a0 3f d8 bd cb ba 0c be 8f 2d b9 bd d9 72 d7 bd
       -0.105590105 -0.13743131 -0.09041893 -0.10519952
0002a0 e6 f5 09 be e6 2f f4 bd 02 42 27 be 9a e8 b2 3c
       -0.13472709 -0.119231984 -0.16333774 0.021839429
0002b0 5f 98 12 bd d8 ec 97 bd 16 da 28 bd a3 ed 79 3d
       -0.035789844 -0.07418221 -0.041223608 0.061017644
0002c0 fe 74 f5 bd 63 a9 d3 bd 1d 83 fc bd 0a 61 96 3d
       -0.11985205 -0.10335042 -0.123296954 0.073427275
0002d0 4e 36 c3 bd 9a cc 2a 3d c3 9b bf bd 53 12 2d bc
       -0.09531842 0.04169903 -0.09355881 -0.010563451
0002e0 4b 88 14 bd a9 9e b2 3b aa 67 ea 39 0e 3c 7b bd
       -0.03626279 0.0054510427 0.00044709194 -0.06133657
0002f0 f0 90 4f 3d 90 ef e2 3d 05 94 e1 bc 49 ec 1b 3c
       0.050675333 0.11080849 -0.027536402 0.009516784
000300 30 40 0c be 89 56 1e bd a4 4e 0c 3c 11 0f e2 bd
       -0.1369636 -0.038656745 0.008563671 -0.1103803
000310 ba c7 25 bd 22 68 39 bd 63 61 3a be 62 66 61 3d
       -0.040473677 -0.045265324 -0.18201213 0.05502928
000320 17 24 04 bd bf c6 bd bd 51 7b 4d 3e b5 0e 3d 3e
       -0.03226098 -0.092664234 0.20066573 0.18462642
000330 4d ba ba 3e 2e 16 a2 be 6e 55 be 3d 4f 3a ca 3b
       0.3647026 -0.31657547 0.09293638 0.0061715017
000340 72 d4 39 3d 3b 5a 3c 3e db c3 75 3e 03 e7 87 bd
       0.04536862 0.18393795 0.24000494 -0.06635859
000350 fa b6 a6 3e d2 8f 17 3e d4 89 61 be fb 48 10 be
       0.32561475 0.14800957 -0.22025234 -0.1409034
000360 ed 57 62 3d 0d 46 9f 3e d6 cb cc 3d b9 d6 ff 3d
       0.055259634 0.31108132 0.09999816 0.12492127
000370 d7 b2 bd 3d 2b 7c 7d 3e 41 60 64 3e fc 84 a2 be
       0.092626266 0.24754398 0.22302343 -0.31742084
000380 a6 27 a6 3d db 3b 6f 3e 36 3e 9e be 4b e8 2c 3e
       0.08113031 0.23362677 -0.30906838 0.16885488
000390 ad c9 98 3e 26 e4 24 3e 75 33 42 3c ca 29 0b 3e
       0.29841366 0.16102657 0.011853089 0.1359016
0003a0 4f 44 8e bd 6b c5 1b 3c 5c e0 15 be d2 14 43 3e
       -0.069466226 0.009507517 -0.14636368 0.19050911
0003b0 33 97 7f 3d 7c 3f 13 3d 53 35 40 3d 55 44 c1 3e
       0.062400054 0.035949215 0.046925854 0.37747446
0003c0 71 d1 87 3d 9e 3f b1 bd 88 a4 63 3e 08 b1 46 3e
       0.06631745 -0.08654712 0.22230732 0.1940347
0003d0 88 f2 36 be 72 a7 76 be d4 bc 24 3c 91 e8 e2 bd
       -0.17865956 -0.24087313 0.010054786 -0.11079515
0003e0 4d ee fe 3d 1a 10 82 3e ab 32 20 3e 3c d9 ad bc
       0.12447796 0.2540291 0.15644328 -0.02122175
0003f0 8a 71 41 3e 17 ae dc 3d e4 2d d7 3d bc 8c 12 be
       0.18890968 0.107753925 0.105068 -0.14311498

decoder.2.bias f4 [20]
000000 1d 0c 5f bd e3 4b e1 bd 4c 67 a9 3e 50 1e 4a be
       -0.05445491 -0.11000802 0.33086622 -0.19738126
000010 4e ef 1e be 8f b7 bc 3d 02 9e 37 be 02 6d 8b 3e
       -0.15520975 0.092146985 -0.17931369 0.27231604
000020 3e f6 e5 3c 3e 5d f7 bb 44 2b 3e 3e 41 17 f0 bd
       0.028071519 -0.007548957 0.18571192 -0.11723185
000030 2f 7a 0c 3f f8 d3 21 be 0c 0a 6b bd 2d 38 52 be
       0.5487394 -0.15803516 -0.05738263 -0.20529242
000040 3e a7 0b 3e 7f 44 fe 3e 56 92 dc bd e8 93 83 3e
       0.13638017 0.49661633 -0.10770099 0.2569878

decoder.4.weight f4 [10, 20]
000000 84 17 c9 3d d8 dd 38 3b ee 5e 58 be de a2 fb 3d
       0.098189384 0.00282084 -0.21129963 0.12286924
000010 64 fa 9b 3c 47 44 ff bd b2 9a 07 3e bc 28 14 3e
       0.019040294 -0.12464195 0.13242605 0.14468664
000020 49 b6 3a be 34 aa fa bd a0 54 b7 3e d0 a4 1e 3e
       -0.18233599 -0.12239495 0.3580675 0.15492558
000030 c7 33 3c 3c f6 15 05 bd 9f cc 80 3d 90 c8 9f 3d
       0.011486954 -0.032491647 0.062890284 0.07801926
000040 54 e0 51 3e 06 fa 6c be 3f b1 d0 bd b3 dd 4b be
       0.2049573 -0.23142251 -0.10190057 -0.1990879
000050 35 e8 51 3e a0 18 64 3e 41 60 18 3e 4b d0 58 bd
       0.20498736 0.22275019 0.14880468 -0.05293302
000060 6e 47 90 3c 3b e1 0b 3e 44 98 9c bd c3 2d a5 3e
       0.017612185 0.13660137 -0.0764623 0.32261476
000070 9b e6 3f bd 98 0f 45 3e 4a e1 87 3e a7 9c df bc
       -0.046850782 0.1924423 0.2653907 -0.027296377
000080 01 c9 8f be a8 db ed bd 35 0e 48 3e ab f4 c8 bd
       -0.2808304 -0.11614162 0.1953667 -0.09812292
000090 9f 87 1a 3e 31 29 94 be a7 06 3c be 81 47 5f be
       0.15090798 -0.28937677 -0.18361913 -0.2180462
0000a0 33 eb 5f be 9a 2c 9d bb 3e 68 38 be 52 29 bb bb
       -0.21867065 -0.0047965767 -0.18008515 -0.005711713
0000b0 24 ec 4b 3d 17 ec f5 bc 86 37 a1 be a8 70 c8 3e
       0.049785748 -0.030019803 -0.31487674 0.3914845
0000c0 86 42 85 be 79 06 57 be c2 6f d5 bc ba 5f 94 bc
       -0.26027316 -0.20998563 -0.026054267 -0.018112052
0000d0 b8 08 fa bd 6b b5 24 be 2f 56 74 3d 4b 9f 18 be
       -0.12208694 -0.1608483 0.059652504 -0.14904515
0000e0 0a bf d5 3e ce d5 ad be 04 60 53 3e af e8 51 3e
       0.41747314 -0.33952183 0.20642096 0.20498918
0000f0 fe 4e a9 3d 60 1e a7 3d 2c 61 ac 3e 57 da 93 3d
       0.0826702 0.081600904 0.33667886 0.072193794
000100 ea e5 d5 3d 95 d7 d7 3c 82 60 62 be 83 c2 75 3d
       0.10444243 0.026347915 -0.22107127 0.059999954
000110 f9 59 51 be 7f 63 54 3e f8 d7 4a 3e fb cd 48 3d
       -0.20444478 0.2074108 0.19808948 0.049024563
000120 83 e5 33 3e e2 54 d5 3c 71 e8 97 3d fc d8 c7 3d
       0.1756802 0.026041452 0.074173816 0.09758183
000130 8b 97 56 3e 44 cf 1d bd f3 8f f1 bd 24 54 03 bf
       0.20956247 -0.038527742 -0.11795034 -0.51300263
000140 21 97 71 bd d1 61 81 bd 8e b8 8a 3d 4d d6 85 bd
       -0.05898202 -0.06317485 0.06773482 -0.06535015
000150 78 7a c9 bd ab 7a 31 3e b5 f8 02 be 65 2d 6b b9
       -0.09837812 0.1733195 -0.12790187 -0.00022428257
000160 4f cc 7d be 71 58 0d be 4a 5f 8f 3e d9 0b c0 be
       -0.24784969 -0.13803269 0.28002387 -0.3750904
000170 9d 36 d7 3d c7 3b 05 be 02 c7 18 3e 3d 70 4d 3d
       0.105084635 -0.13011084 0.14919665 0.050155867
000180 2f b7 94 3d 6b eb bb 3e 5f 67 1e 3e 3f e2 e0 bd
       0.07261502 0.36703047 0.1546912 -0.10980653
000190 53 24 f3 bc 8e ad 7f 3e e0 b0 0d 3e 96 04 20 be
       -0.029680407 0.2496855 0.13837004 -0.1562675
0001a0 72 aa a0 bd 2c 36 82 3c d7 5e 26 3e a3 5b 13 3e
       -0.0784501 0.015894972 0.16247116 0.14390425
0001b0 42 60 18 be 48 08 f1 bd 8d 0c 0b 3e 66 6f cc be
       -0.1488047 -0.11769158 0.13579006 -0.3992874
0001c0 45 8e e6 3a 20 34 2e be d4 f6 44 be 69 33 28 3d
       0.0017590007 -0.17012072 -0.19234782 0.041064654
0001d0 88 8b 2c 3e 42 e2 a5 3e a9 4a 2f be 8c 8e 70 bd
       0.16850102 0.32399184 -0.17118324 -0.058729693
0001e0 af 69 1d be 80 fc 83 bd 7d 15 27 bd 5a eb c3 3d
       -0.15372346 -0.06444645 -0.040791977 0.09566374
0001f0 d3 82 2b 3e 69 13 09 3f a1 5f bc 3e 79 d9 8e 3c
       0.16749124 0.5354524 0.3679171 0.017437683
000200 5d 73 44 be 3b 91 4d 3e 0d 47 35 be 69 ff 7a be
       -0.19184633 0.20074932 -0.17702885 -0.24511494
000210 f8 56 da be 25 60 81 bd a1 65 69 3e 8b 1e 25 be
       -0.42644477 -0.06317166 0.22792675 -0.16124932
000220 fa fc c3 3d 17 32 27 3d 6e 5e 00 be d4 ef ae bd
       0.09569736 0.040819254 -0.12536022 -0.08541837
000230 ec 0f c2 bc 18 4d 62 be 2c 4b 02 3e 07 d7 2e 3e
       -0.023689233 -0.22099721 0.12723988 0.17074214
000240 aa 33 02 3d 02 12 ba bd 59 9c 3e 3e 28 6f 4b 3e
       0.031787552 -0.09085466 0.1861433 0.19866621
000250 c4 e7 3b be d3 a8 b1 bd ef 0b 2c 3d 2d 58 a9 be
       -0.1835013 -0.08674779 0.04200357 -0.33075085
000260 b0 e5 d4 bd 27 f1 7d 3d 55 25 0d be ba 9b 0a 3d
       -0.10395372 0.06199756 -0.13783772 0.03383992
000270 2a 7e 2d 3e 93 ad d3 3e 36 b6 cf 3c b6 20 21 be
       0.16942659 0.41343364 0.02535544 -0.15735134
000280 23 7d 06 be 8a 72 8c bd 50 ab 4b 3e 01 0c 3e be
       -0.13133673 -0.06857784 0.1988957 -0.18559267
000290 c2 2f 31 3e 2e c2 82 be 35 5d 76 3e e5 eb f8 3d
       0.17303374 -0.25538772 0.24058993 0.12154368
0002a0 c7 9f 9c bd 78 29 83 3d b6 89 0f bd db ed 79 be
       -0.076476626 0.06404394 -0.03504344 -0.24407141
0002b0 dd 09 93 3e 33 4a a6 3d b8 0b d2 3e 6c 40 ac bd
       0.28718463 0.08119621 0.41024566 -0.08410725
0002c0 26 b1 07 3d 0a 16 21 be b9 72 49 be e6 42 15 be
       0.033127926 -0.15731063 -0.1967267 -0.14576301
0002d0 f2 da 58 be e1 c9 59 3e ae 3f 43 3e 85 bc 1c 3d
       -0.21177271 0.21268417 0.1906726 0.038265724
0002e0 b1 f7 e4 bd 42 ff 94 be ee 99 59 3e a6 c2 ef bd
       -0.11180056 -0.29100996 0.21250126 -0.11707048
0002f0 20 a7 ad bd 2e af b6 3d 57 56 45 3d 1d dd ba bd
       -0.08479142 0.089201316 0.048178043 -0.09124205
000300 f6 2a f2 3d 71 a0 48 3e d7 da b9 3e 2b 6b bd bc
       0.118246004 0.19592454 0.36299774 -0.02312239
000310 b8 8b 4c 3e 8d 27 76 be ee 0b 8f bd 47 96 3f bd
       0.19975173 -0.24038525 -0.06984697 -0.046774175

decoder.4.bias f4 [10]
000000 d3 4f 89 be 71 7a b5 bd 95 2f 8e 3e 34 fc b7 3d
       -0.26818714 -0.088612445 0.27770677 0.08983651
000010 6e 89 e0 bd 03 e7 6e bc 6a 5c cb be 7f 69 49 3d
       -0.10963713 -0.014581445 -0.39718944 0.049172875
000020 47 42 93 3c f4 16 be bd
       0.01797594 -0.09281722

mean_layer.weight f4 [6, 40]
000000 1b 28 0d 3f e6 fe 1c be fc d8 e8 bd b0 e4 39 be
       0.5513932 -0.15331611 -0.113695115 -0.18153644
000010 f3 71 22 3e bf ea 43 3e 79 7b 83 3e 9e 13 8b bd
       0.1586378 0.19132517 0.2568014 -0.06790851
000020 84 fa 07 3d 3c 9f da be 5e 38 5a bd b8 bc a3 bd
       0.033197895 -0.4269961 -0.053276412 -0.079949796
000030 d0 64 2f 3e 84 37 4d 3b 68 ac 2d 3e 77 41 bd bd
       0.171283 0.0031313607 0.16960299 -0.09241002
000040 10 e3 8e be 35 06 bf 3d 2d a7 18 3c ae 24 a4 3d
       -0.2790761 0.09327356 0.009317202 0.080148086
000050 34 e6 6f 3e 06 a8 b3 bc 2b ad 6b 3e 04 96 ee 3d
       0.2342766 -0.021930706 0.23015277 0.11649707
000060 57 57 07 be 8e 70 f2 bd 7a ee 54 3e 4f 39 50 bd
       -0.13216911 -0.11837874 0.20794097 -0.050835904
000070 38 7b 97 3e 0e 0d 25 3e 4a d2 0b 3c 78 5a 85 3e
       0.29586196 0.16118261 0.008534024 0.26045585
000080 36 bf 0a 3e a8 f6 e0 bd 73 b9 41 3e 65 ee 61 3d
       0.13549504 -0.10984546 0.189184 0.05515899
000090 20 1d 94 3e a0 c0 af 3e 43 41 0b be 88 29 bf bd
       0.2892847 0.3432665 -0.13599114 -0.09334093
0000a0 6a 78 1b be 4a 9d 84 be 1e b3 0c 3e 98 79 8c 3d
       -0.15182653 -0.25901252 0.13740203 0.0685913
0000b0 e1 87 63 3e 47 dc 85 bd be 76 3b bd 17 e4 bc ba
       0.22219802 -0.06536155 -0.04576754 -0.0014411238
0000c0 61 67 37 be 40 39 b1 bd ba 08 66 3e 21 20 37 3d
       -0.1791053 -0.08653498 0.22464266 0.044708375
0000d0 7d 41 af be 37 7b 93 be de 7f d0 3e b2 2b b0 3d
       -0.3422965 -0.28804943 0.40722555 0.08602084
0000e0 49 33 37 3e 74 ab f3 bd a0 e0 a8 bd 0c 34 01 3e
       0.17890657 -0.118979365 -0.08245969 0.1261751
0000f0 c5 82 68 3e d3 5b 34 3d e9 38 28 bd 7d dd 82 be
       0.22706135 0.044032883 -0.0410699 -0.25559607
000100 b1 5d 73 3e 07 da 82 bd fe dd 93 3e 7a f3 4e 3e
       0.23766209 -0.06389242 0.28880304 0.20210066
000110 fa aa c5 bd 90 bc 55 be 54 62 6d be 06 37 64 3e
       -0.09651752 -0.20872712 -0.2318204 0.22286615
000120 58 3a 84 3e 2a ef db bd 0f 47 1c 3e b6 69 4f be
       0.25825763 -0.10738976 0.15261482 -0.2025517
000130 0e 76 f4 3d 0f 2f 22 3e 3b 46 79 3e 98 85 9a 3c
       0.1193658 0.15838264 0.24343197 0.01886253
000140 02 d5 94 be a7 c7 bf bb f0 df 40 bd d2 23 d7 3d
       -0.29068762 -0.005852658 -0.047088563 0.10504879
000150 ac 17 14 3e 88 05 aa 3e 96 27 57 be 24 52 3b 3e
       0.14462155 0.33207345 -0.21011195 0.18293053
000160 ff d2 04 3e a8 46 e4 be 45 ed c1 3e 62 3f 8a 3a
       0.12971114 -0.44585156 0.37876335 0.0010547454
000170 85 6d d0 3d 16 8b cb bd e2 46 31 bf 1c 8c 6e 3e
       0.10177139 -0.09938638 -0.69248784 0.23295635
000180 31 0b 68 3e 10 ac b4 bd 1e 50 55 be 92 56 07 3d
       0.22660519 -0.08821881 -0.20831344 0.033041544
000190 23 d2 00 3e 71 80 3a be b6 59 2f 3d ef 97 b0 3d
       0.12580161 -0.18213059 0.042810164 0.08622729
0001a0 ce f1 11 3e 7b 1c f3 3c e9 d8 44 3e 9a 47 fc bb
       0.14252397 0.029676666 0.1922337 -0.0076989653
0001b0 4d 6e 99 3e 4b 7c ad 3e 6c 1a 26 3e 4b 24 a0 3e
       0.29966965 0.3388389 0.16221017 0.3127769
0001c0 bb f6 a2 bd de 95 f7 3d c1 f9 aa bd 4a 22 0f 3e
       -0.07957216 0.12089132 -0.08348418 0.13977924
0001d0 59 da 50 be c6 57 4e 3e 8c 4d 18 3e d8 53 55 be
       -0.20395793 0.2015067 0.14873332 -0.20832765
0001e0 5c 6e 07 be 12 dc a5 3d e3 6d 9b be c8 13 58 be
       -0.13225693 0.08098616 -0.30357274 -0.21101296
0001f0 8e b1 e6 bc 52 29 44 3e 8c 3e 81 bd 0e dd 26 bd
       -0.028160837 0.19156387 -0.06310758 -0.040738158
000200 95 84 44 be 24 f9 66 3f 31 26 02 be 5b 4c bb bd
       -0.19191201 0.9022391 -0.12709881 -0.09145423
000210 81 fa 54 3d 79 25 e0 bc bd fe fd 3d 5e 24 a3 3d
       0.05199671 -0.027361618 0.12402103 0.07965921
000220 36 92 e1 3d 24 44 0c bd 05 99 31 bc bb 32 88 3e
       0.11014216 -0.03424467 -0.010839705 0.26601204
000230 5d b2 39 3e a8 60 e9 be da bd 60 bd 58 af 9a bc
       0.18134446 -0.45581555 -0.054868557 -0.018882439
000240 75 40 23 3d 4b 1f 53 3c fc 84 f7 3d 09 6b 0c 3e
       0.039856393 0.012885879 0.12085912 0.13712706
000250 77 ce c4 bd 39 11 74 bd a7 ab fc 3d 5c 23 a0 3e
       -0.096096925 -0.059586737 0.123374276 0.31276977
000260 4d 38 8a be 66 2d 89 3d d3 df aa 3d 8c bd 99 be
       -0.2699608 0.06698112 0.08343472 -0.30027425
000270 a7 98 a0 3d 86 9c 73 3e 54 6f 19 be 90 c7 85 bc
       0.07841616 0.23790178 -0.14983875 -0.01633051
000280 bc a7 93 3e 59 8a 62 be fb cd 6f bd 03 81 d2 ba
       0.2883891 -0.22123088 -0.058546048 -0.0016060177
000290 8f 7f ac bc ff 29 ef bb dc 6a 82 bd 7a e7 8f bd
       -0.021056918 -0.0072987075 -0.06368038 -0.070265725
0002a0 74 56 6d be ff 3b 9c be 61 db a7 3d 0a 94 ce 3c
       -0.2317751 -0.30514523 0.0819614 0.025217075
0002b0 56 10 ca 3e ed 42 65 3d ab f5 ba be 1e 0a 65 3e
       0.39465588 0.05597203 -0.36515555 0.2236714
0002c0 a8 24 1b bd 00 9c 58 be 12 b8 48 3e eb c1 0e be
       -0.037876755 -0.2115326 0.19601467 -0.13941161
0002d0 a9 57 a8 3e 67 8a 27 3e 02 04 2c be 78 8a 04 3d
       0.3287938 0.1636139 -0.16798404 0.032358617
0002e0 fe 92 25 3d 54 d8 70 3d 69 8a fd 3d 7e 79 80 bd
       0.040423386 0.058800057 0.12379915 -0.06273173
0002f0 5e 5e 7b be 85 56 71 be 12 3b 32 3e 71 4a 65 3d
       -0.24547717 -0.23568161 0.17405346 0.055979196
000300 1f 64 46 3d c7 e4 31 be b2 55 60 be b3 e0 d9 3c
       0.048435327 -0.17372428 -0.2190769 0.026596403
000310 65 1b 89 be 30 7c 62 be 2c 29 cc bd 61 b8 c8 3e
       -0.26778713 -0.22117686 -0.099687904 0.3920317
000320 a5 9d 12 3e 92 87 7a be d2 ff 0f 3e 45 ce 08 3e
       0.14317949 -0.24465778 0.14062431 0.13359936
000330 00 72 3b be 65 4c 7b 3e ed 49 8a 3d 0a 49 c3 3d
       -0.18305206 0.24540861 0.067523815 0.095354155
000340 32 f9 ca 3d 4b f0 bd 3e a1 27 a4 bd 9e f4 25 3e
       0.099108115 0.3709739 -0.08015371 0.16206595
000350 78 5e e0 be 51 df 1e bd 58 f2 86 3e ec ea c2 3d
       -0.43822074 -0.03878719 0.2635677 0.09517464
000360 89 1f 10 3d 42 ef 28 be e7 e1 26 3e 8d 20 fe bd
       0.035186324 -0.1649752 0.16297112 -0.12408552
000370 68 4e 1f be 37 e0 c6 3d 36 02 8b be b6 b1 92 3e
       -0.15557253 0.09710734 -0.27150124 0.28651208
000380 cd 0b 44 3d 39 f0 84 3c fd 6f b8 bd ca 0d d5 bd
       0.047862817 0.016227828 -0.09005735 -0.10403021
000390 54 17 43 3e d3 36 4d bd 67 fa d4 be 3f 57 47 bd
       0.19051868 -0.050101113 -0.41597292 -0.04866719
0003a0 fa f9 67 be 79 e2 b1 bd bc d3 41 be b1 a4 5e 3e
       -0.22653952 -0.08685774 -0.18928427 0.21742512
0003b0 57 f2 e6 bd 9c a0 b6 bb 07 8a 54 bd 8d 78 b8 3d
       -0.112766914 -0.0055733453 -0.051889446 0.09007368

mean_layer.bias f4 [6]
000000 d4 2d 21 3d 10 c5 04 be 64 16 86 be 2d 6c 64 bd
       0.039350346 -0.12965798 -0.26188958 -0.055767227
000010 31 d7 3b 3e f0 8d d3 bd
       0.18343808 -0.10329807

var_layer.weight f4 [6, 40]
000000 b6 50 33 bf 13 73 eb be 7f 80 04 bf 79 cb 86 be
       -0.7004503 -0.45986232 -0.5175857 -0.26327112
000010 dc 15 18 bf 55 58 20 bf e9 25 8f be 3d 53 6b be
       -0.59408355 -0.62634784 -0.2795861 -0.22980972
000020 85 71 c6 be 84 64 e1 bf b7 bd cc be 6a a4 84 bc
       -0.38758484 -1.76088 -0.3998849 -0.01619168
000030 83 e4 f9 bf aa c0 f2 bd a1 a0 f0 bf ab 56 58 bf
       -1.9522861 -0.11853154 -1.879902 -0.84507245
000040 33 58 43 bf c3 71 ff be 62 f5 34 bf f5 fd 0a be
       -0.76306456 -0.4989148 -0.70686924 -0.1357344
000050 3f 5b 53 bf f7 96 9b be ce dc 31 bf eb 9d f1 be
       -0.82561105 -0.30388615 -0.69477546 -0.47190794
000060 96 ed fc be e3 9a 13 be 3e ee 37 bf 3c da 06 bf
       -0.49400014 -0.14414553 -0.71847904 -0.5267675
000070 a4 31 7c be e1 42 f3 be bb ed 23 bf 1c f6 f0 be
       -0.24628311 -0.47511962 -0.6403462 -0.47062767
000080 95 46 f3 be 83 72 1c be 8a cb 4a bf de 59 eb be
       -0.47514787 -0.15278058 -0.79216826 -0.45967
000090 b6 19 31 bf b3 9e 2e bf 4d de 41 bf 33 a1 70 bf
       -0.69179857 -0.68210906 -0.7572983 -0.9399597
0000a0 b3 97 55 bf 98 91 9d be f4 22 04 bf b6 54 81 be
       -0.834346 -0.30775142 -0.51615834 -0.25259942
0000b0 59 fc 4c bf 7e 95 c5 be a1 92 53 be d6 5a af be
       -0.8007255 -0.38590616 -0.20661403 -0.3424899
0000c0 eb 72 a0 be 2a b6 0d c0 51 a5 08 bf ae 3b 00 be
       -0.31337675 -2.2142434 -0.5337725 -0.12522766
0000d0 40 c6 08 c0 7e d5 03 be a2 2e 0d c0 d2 bc 74 bf
       -2.1371002 -0.1287441 -2.2059712 -0.95600617
0000e0 a5 d1 64 bf b5 4e 1f bf 1e ef 11 bf 00 34 d3 be
       -0.8938239 -0.6222947 -0.5700549 -0.4125061
0000f0 cd 0a 5d bf ca f5 07 bf 25 89 3b bf 56 73 06 bf
       -0.86344606 -0.5310942 -0.7325614 -0.5251974
000100 3d 52 18 bf d3 71 24 3d 38 83 21 bf a2 76 3b bf
       -0.59500486 0.040147614 -0.6309085 -0.73227894
000110 19 92 c4 be bd 9c 01 bf 95 a6 30 bf ac 76 24 bf
       -0.38392714 -0.5062979 -0.69004184 -0.6424358
000120 9e ca 15 bf 4e c7 95 be 61 13 50 bf a0 ab 90 be
       -0.58512294 -0.2925362 -0.8127957 -0.2825594
000130 cd 95 45 bf 6b c8 6d bf 30 a8 41 bf 13 4b 4d bf
       -0.771817 -0.9288394 -0.7564726 -0.8019268
000140 07 19 36 bf 0f e4 27 bf 34 a9 1f bf 4b f0 99 be
       -0.7113194 -0.65582365 -0.6236756 -0.3006614
000150 74 9f 13 bf bb d8 26 bf e3 52 04 bf 1e 9a 00 bf
       -0.5766518 -0.65174454 -0.51688975 -0.50235164
000160 dc e0 1f bf ed 8f e1 bf 4f 09 8d be 99 ef f5 bd
       -0.62452483 -1.7622048 -0.27546164 -0.1200859
000170 19 9d c4 bf d4 72 ad be 7c de cf bf 56 6c 38 bf
       -1.5360442 -0.3387667 -1.6239772 -0.7204031
000180 48 19 7f bf 0b 78 3c bf 0e 14 5a bf 79 28 b8 be
       -0.9964795 -0.7362067 -0.8518685 -0.35968378
000190 e1 41 71 bf 38 0f 08 bf b2 00 6a bf a9 89 22 bf
       -0.9424115 -0.5314822 -0.9140731 -0.634913
0001a0 45 6e 07 bf b7 5b 09 be 97 75 45 bf 5b 92 01 bf
       -0.5290263 -0.13413893 -0.7713255 -0.50613946
0001b0 70 e4 c0 be ab 65 0c bf 94 6a 27 bf 03 15 21 bf
       -0.37674284 -0.54842633 -0.65397 -0.62922686
0001c0 93 b5 28 bf cf b6 f5 be 7a 9a 59 bf 4f a2 db be
       -0.6590206 -0.47991034 -0.8500134 -0.4289727
0001d0 3e 83 76 bf 26 09 61 bf c0 48 5d bf 38 2a 82 bf
       -0.9629401 -0.87904584 -0.8643913 -1.0169134
0001e0 a3 0d 6f bf 9d 24 d1 be 79 c3 3c bf 01 88 72 be
       -0.93380183 -0.40848246 -0.7373577 -0.23684694
0001f0 26 88 20 bf d2 69 dc be 53 76 75 be 38 45 b8 be
       -0.62707746 -0.43049484 -0.23970918 -0.3599031
000200 b7 df 10 bf d3 94 00 c0 d4 99 c4 be 19 84 14 3e
       -0.5659136 -2.0090835 -0.38398612 0.14503516
000210 3f f1 03 c0 4b 6d 8e be 11 1b 07 c0 20 2e 74 bf
       -2.0615995 -0.2781776 -2.111027 -0.9538288
000220 f2 e2 36 bf 91 24 14 bf 55 f0 35 bf 60 90 cf be
       -0.7144004 -0.57868296 -0.7106984 -0.40539837
000230 1b 9e 5b bf 60 99 15 bf 23 8e 25 bf 2f 30 0b bf
       -0.85788125 -0.58437157 -0.6467001 -0.543704
000240 46 d3 39 bf 0c 05 c0 bc b3 4d 41 bf 77 f8 39 bf
       -0.72588 -0.023439907 -0.75509185 -0.7264475
000250 5d 19 8e be a9 95 0f bf ca 3e 28 bf 22 6c 0f bf
       -0.27753726 -0.5608774 -0.6572081 -0.5602437
000260 23 64 12 bf 7c be 01 bf 49 30 2c bf 77 f7 cf be
       -0.57184047 -0.5068128 -0.6726118 -0.40618488
000270 a2 83 51 bf f0 c0 21 bf 9f 58 3a bf 25 e3 37 bf
       -0.8184148 -0.63185024 -0.72791475 -0.7183097
000280 5b ac fe be 55 00 de be 1a 56 25 bf 1b b2 66 be
       -0.49740872 -0.43359628 -0.64584506 -0.2252888
000290 9f 58 3b bf 12 bf 04 bf 80 af 37 be 31 55 d2 be
       -0.731821 -0.5185405 -0.17938042 -0.4108062
0002a0 1d a0 99 be 41 17 09 c0 25 34 cb be a1 1f e7 bd
       -0.3000497 -2.1420443 -0.3968822 -0.112853296
0002b0 a0 1a df bf 3f 82 ae be a4 f2 08 c0 9b 01 12 bf
       -1.743 -0.34083745 -2.1398096 -0.570337
0002c0 e4 82 6d bf b3 4b 1e bf a0 cf 15 bf 14 b8 be be
       -0.9277785 -0.6183426 -0.58519936 -0.37249815
0002d0 31 8c 64 bf f9 b1 85 be a5 d9 2a bf c0 5a af be
       -0.89276415 -0.26112345 -0.6673835 -0.34248924
0002e0 84 3b 4f bf f4 13 ab bb cb bb 4d bf b0 2c 07 bf
       -0.8095019 -0.0052208845 -0.80364674 -0.5280256
0002f0 d5 74 56 be 45 67 cc be c7 21 38 bf 27 62 3c bf
       -0.20943005 -0.39922538 -0.7192654 -0.7358727
000300 b0 2e 12 bf 71 66 8d be 02 bd 43 bf 7f f4 06 bf
       -0.5710249 -0.2761722 -0.7646028 -0.5271682
000310 94 a3 61 bf 82 11 3f bf 12 c5 51 bf 6e 5f 3e bf
       -0.88140225 -0.7463609 -0.8194133 -0.74364364
000320 1d 90 07 bf cb 9e 11 bf 6c b1 0e bf b4 88 7e be
       -0.52954274 -0.56882924 -0.55739474 -0.24856836
000330 f6 72 4f bf b2 3d c5 be 62 87 c4 be a2 b9 d0 be
       -0.8103479 -0.38523632 -0.3838454 -0.40766627
000340 56 96 fe be 62 5b 10 c0 ee 1a a8 be 9e dd d9 bd
       -0.49724072 -2.2555776 -0.32833046 -0.10637973
000350 fc f5 01 c0 35 88 2b be 94 d1 16 c0 e0 dd 4c bf
       -2.0306387 -0.16751178 -2.3565416 -0.80026054
000360 20 e0 5a bf 4b 42 4a bf ad 38 23 bf f7 44 80 be
       -0.8549824 -0.79007405 -0.63758355 -0.25052616
000370 a1 ea 54 bf b0 46 cf be b3 d0 1f bf 48 b8 04 bf
       -0.83170515 -0.40483618 -0.62427825 -0.5184369
000380 6e f2 07 bf 63 19 a6 3d 1a df 33 bf 9e 9a e5 be
       -0.53104293 0.08110311 -0.702623 -0.44844526
000390 17 15 09 be 8b 7e 0c bf bc 43 3d bf bb 41 0f bf
       -0.13386951 -0.5488059 -0.7393148 -0.5595967
0003a0 c6 8e 1d bf 7c 83 c9 be 38 2c 27 bf bb c6 b9 be
       -0.6154598 -0.39358127 -0.6530185 -0.36284432
0003b0 52 75 46 bf 22 1d 17 bf e6 f8 4c bf c9 8f 29 bf
       -0.77522767 -0.5902883 -0.8006729 -0.66235024

var_layer.bias f4 [6]
000000 3a d0 19 bf 2e 8a b6 be 2d db e1 be 0c ea 2d bf
       -0.60083354 -0.35652298 -0.4411253 -0.6793525
000010 31 b6 23 bf 77 97 db be
       -0.6394988 -0.42888996
